pettingzoo/pettingzoo/sisl/best.pth (torch, 81919 bytes, 6 tensors)

fc1.weight f4 [256, 12]
00000000: 499c a1bd 3950 363e b2e2 8ebe aed9 92be
00000010: 0f8d 25bd 2d8f 113e 406b bbbb 4199 913e
00000020: fcdd cdbd 58c3 943d 1f26 1cbe 40da e73b
00000030: 3665 b5be 0583 2abe 3bc6 2ebe 17f2 75bd
00000040: bb16 363e 2585 7b3e d266 48be 8e13 8bbd
00000050: fbae 2b3d e819 733e 88c0 05be 8001 8f3e
00000060: 0e04 d8bd 8d85 a23d 6d98 5c3e 8a3d aabe
00000070: f1dc 0bbe dc64 d1bd cc73 e6bd ed2c 8c3e
00000080: f512 7abe c914 cabd 5f86 82be ea30 63be
00000090: f8c6 64be eaf5 8e3e a0ce 163e ccd2 be3d
000000a0: a418 0cbd d49c 6fbe d80b 483d 6b00 8abe
000000b0: b1ab 78be 68fb adbd ccf5 f23d ac67 703e
000000c0: 18f5 10be 451a e03b 8e77 6e3e 5bc0 8a3e
000000d0: 666c 0c3d 8bb4 5abd b032 463e 4c0d 2ebe
000000e0: a391 3a3d 2713 3ebe 7fd1 64be e8d9 0cbe
000000f0: a304 483d d6a6 0a3e f61f 56be d7f2 b23c
00000100: 8b7c 543e e540 2b3c e095 343c d4b2 fb3d
00000110: d8b2 d33d 7386 993e ac09 9abe 929b 4dbd
00000120: 5fe6 103e be7b 7d3e 25af b83e 3d4b 783e
00000130: 478e 27bd 5fdf aebe e08b d93c 58ee 38be
00000140: 6a93 64be 5374 2d3e 1e16 2d3e d436 9cbe
00000150: 46f1 e43a 0285 15bd 47de a6bd a321 41be
00000160: dd26 163e d7f7 1bbe 34bb d83d a89d 133e
00000170: 6ff4 f53d 7575 0f3e 5819 a0be 261d 0abe
00000180: 1cc6 a03d 0cbf 7a3d ec52 8cbe cd7c 68be
00000190: d38b a83e 4b1f 803e f7e3 00be a9b3 80bc
000001a0: f2af b4be a1df b03c 1b1b 8bbe bcac 19be
000001b0: 1c75 bbbd ce26 923d 3089 29be 3942 cf3d
000001c0: 6bec debd 6c76 a93e b293 4a3e 78d7 4abe
000001d0: 77ed 0dbe 3256 b43c 2d27 bcbc 4c87 123e
000001e0: eccd a93d b239 073d 2eec 16be ea12 ad3d
000001f0: d49e 9abe 8251 60be 26ff 93bd 09fe 0fbe
00000200: 5251 ffbd 5d2f 3bbe 1d03 c5bd 90f4 053e
00000210: eedb 78be 4206 c73c c63b 133e 79cd dbbd
00000220: 70c2 9d3d 7120 243d 684c 6f3d 7b81 713e
00000230: 5fe6 6b3e 1eec 3e3e 39f4 7b3e 04d8 4e3d
00000240: e7bd 83be ea17 0ebe 3054 4b3e 30be 1139
00000250: 68da 10be 176c 60be 0c52 8abe dc7d 79be
00000260: 429b 67bd 4404 203e b8d0 1f3e 6d8b 8ebe
00000270: b390 0b3e 6db1 55be d9ba b8bd ec30 21be
00000280: 73d2 a2bc a4b9 e2bc 3ca1 84be 7e2f 76be
00000290: dd87 cbbd 50cf 873c 3ccb 1cbe 0de7 183e
000002a0: 66c3 a8be f56e 873b c032 4a3e 6df4 45be
000002b0: e563 a93e e358 2f3e 9e62 85be 5e51 713e
000002c0: 8690 cabd eaee d8bd 3d99 353e 6183 25be
000002d0: c61d 903c be83 3dbd 1cf0 453e 2f27 893d
000002e0: 934e 1b3e de2f e73d 962b 8ebd f8e5 4dbd
000002f0: 85b4 7abe eee6 183e dcb3 6a3e 5842 4a3e
00000300: 0535 8fbe eedd 483d 8f22 89be e02d 65be
00000310: 78dd cabd 10fd 2a3e 6827 30be e7d9 483d
00000320: 6b2c 6abd f87b 4e3e 69cf 8cbe fc88 06be
00000330: 3692 60be d13a 523e c104 03be 2aef 443e
00000340: 22aa 0b3e 4fe6 8b3d 80d4 0cbb f56c 0bbb
00000350: c1c5 d5bc b1ff 5cbc 0950 31bd 8a62 b53d
00000360: 6d66 9dbe acf9 d7bd 9a26 363e e3c3 a2be
00000370: 9de4 f63c d55d a83e d490 d53d 5dfe 813d
00000380: 3c31 a6be f9e4 293e e5f5 81be 5163 24bd
00000390: ebbb 1fbe be14 84bc 9c3a 3dbd 701e 363e
000003a0: c902 d73d b4af a83e 02d3 343e ac4b 0cbe
000003b0: 1e8a 8d3d 43d4 43be 1f19 2fbe 7d91 1a3e
000003c0: 7a01 3f3d b001 7a3e 98b3 07be 56cf 85bd
000003d0: 1e63 4c3e bf37 75be 2ab7 553e 9d18 79be
000003e0: 6a4a 58bd f0a0 51bd eb88 40be aca0 da3d
000003f0: f068 543e 3635 e1bd b03b 63be 0bf4 25be
-0.07891137 0.1780404 -0.2790733 -0.286817 -0.040417727 0.14214773 -0.0057195723 0.28437236
-0.10052106 0.07263821 -0.15248917 0.007075578 -0.3542878 -0.16651542 -0.17067806 -0.060045328
0.17782108 0.2456251 -0.19570473 -0.06790839 0.04191492 0.23740351 -0.13061726 0.27930832
-0.10547648 0.07935629 0.21542521 -0.33250076 -0.13658501 -0.102243155 -0.11252555 0.27378026
-0.24421294 -0.09867246 -0.25493142 -0.22186628 -0.22341526 0.27921993 0.14727259 0.0931755
-0.034203187 -0.23399669 0.04883942 -0.26953444 -0.24284245 -0.084952176 0.11863288 0.23477048
-0.14155996 0.006839069 0.23287794 0.2709988 0.034283064 -0.053394835 0.19355273 -0.1699726
0.045549046 -0.18561994 -0.22345541 -0.13755 0.048832547 0.13540205 -0.2091063 0.02184431
0.20750634 0.010452484 0.011022061 0.12289968 0.10336846 0.2998539 -0.30085504 -0.05019719
0.1415038 0.24754235 0.36071125 0.24247451 -0.04090717 -0.34154794 0.026555955 -0.18059671
-0.22321859 0.16938905 0.16902968 -0.3051058 0.0017466925 -0.0365038 -0.08147865 -0.18860488
0.14663263 -0.15231262 0.10582581 0.1441561 0.12009513 0.1400965 -0.31269336 -0.13487682
0.07850286 0.061217353 -0.27407014 -0.22703858 0.32919177 0.25023875 -0.12586962 -0.015710669
-0.35290486 0.02159101 -0.27169117 -0.15007299 -0.09153196 0.07136308 -0.16556239 0.10120053
-0.10884937 0.3309816 0.19782904 -0.19808757 -0.13860117 0.022013757 -0.0229679 0.14309424
0.082912296 0.033014007 -0.14738533 0.08450873 -0.301993 -0.21906093 -0.072264 -0.1406175
-0.124666825 -0.18279786 -0.096197344 0.13081574 -0.24302647 0.024294976 0.1437827 -0.1073255
0.07703102 0.04007 0.058422476 0.23584549 0.23037098 0.18644759 0.24604882 0.050498977
-0.25730821 -0.1387631 0.19856334 0.00013899128 -0.14145815 -0.21916233 -0.27015722 -0.24364418
-0.05654455 0.15626627 0.15606964 -0.27840748 0.13629417 -0.20868464 -0.09020013 -0.15741318
-0.01987574 -0.027676411 -0.25904262 -0.24041554 -0.09938023 0.016578346 -0.15311903 0.14931889
-0.32961577 0.0041331 0.19745922 -0.19331522 0.33084026 0.17123751 -0.260518 0.23566195
-0.09890847 -0.10592444 0.17734237 -0.16163398 0.017592322 -0.046268217 0.19329876 0.06696927
0.15166692 0.11288427 -0.06941907 -0.050268143 -0.24482925 0.14931843 0.22920173 0.1975187
-0.27970138 0.049039774 -0.2678418 -0.22380781 -0.09905523 0.16698098 -0.17202532 0.049035933
-0.057171267 0.20164478 -0.2750199 -0.13138193 -0.21930775 0.20530249 -0.12794782 0.19231859
0.1363912 0.06831037 -0.0021488965 -0.002127466 -0.026095273 -0.013488696 -0.043289218 0.088566855
-0.30742207 -0.10545668 0.17788163 -0.31790075 0.030138308 0.32884088 0.104280144 0.06347344
-0.32459438 0.16591252 -0.25382915 -0.040133778 -0.15599029 -0.016123172 -0.046198472 0.17785048
0.10498578 0.3294655 0.17658618 -0.13700742 0.069111094 -0.1912394 -0.17099427 0.15094562
0.046632268 0.24414706 -0.13252103 -0.06533687 0.19959685 -0.23947047 0.20870653 -0.24325795
-0.05280534 -0.051178873 -0.1880223 0.10675177 0.20743155 -0.10996477 -0.22190738 -0.16206376

fc1.bias f4 [256]
00000000: 2645 a63e 0834 8e3e a300 40be d587 8fbd
00000010: 47f7 353e 213b dcbd 40f7 8a3d 41bb bcbd
00000020: 30e3 c03d e09f 453e 533d e83d 6687 8d3e
00000030: 6c82 16bd 780b 3f3e 9642 163e 3081 a0bd
00000040: 906e 0dbe 074f 993e e7f7 0dbc 3b79 893e
00000050: be6d 673e 7044 083d 6453 68be 6767 2d3d
00000060: db15 1cbe d2c4 e53d 68ff eabd 2296 823e
00000070: 40f7 4abe 44af 8abc f9ad c93d bf72 8b3d
00000080: d586 883e 9f43 4abd 57e7 33be 5a8b 7f3e
00000090: fb49 fb3d 3635 6e3e 9762 0bbe 21c3 2abe
000000a0: 06a8 70bd 1022 a83c 15a1 163e 881d 26be
000000b0: a0a6 debc 68b8 7b3c eebd 903e b7b6 39bd
000000c0: f03a 8f3e cdcf 03be 334c a1bd 0356 5ebe
000000d0: 78c4 8d3e c140 52be 3a0b 323e 4ccc 9bbd
000000e0: 1832 b03e 0377 983d 7c5a 80be 6496 953d
000000f0: b2ef a83d 8a39 58be ddd0 a53d 1223 ab3e
00000100: e0c5 153e dcaa 023d 72a3 13bd cc87 043e
00000110: f106 8fbd 64ef 9f3e b698 973e 98cb 423e
00000120: 0021 59bd 7077 7abe b804 dbbd ba2b ad3e
00000130: bfd2 44be 444a 63be d8ab fdbc 3cbb b83d
00000140: 6a48 8fbe 98d4 75be e447 f03b 18f8 c3bd
00000150: 2f29 693e e3a9 f03d 914b 80be 78eb 2dbe
00000160: 0816 4f3e 8720 1cbd 6914 a1bd d8ab f43d
00000170: b69c 643b 4cb5 203e 6a6a f03d 617b d2bd
00000180: bfa3 2bbe 865b 3c3e 5440 fcbd 0848 7a3c
00000190: 5664 9c3d 995e c5bd 9024 5e3e 4e83 17be
000001a0: 3040 ad3d bef2 8d3d 5ec3 273e 1b0e 91be
000001b0: 09b8 c43d c0d8 543e 250d 27be 091a ec3d
000001c0: 5539 513d 5f5b 953e 292e 04bd 6c7e 6f3d
000001d0: fbda 91bd 7d4b 7abd df66 b93d edc3 67be
000001e0: 996c 803e 18c6 853e 9b48 093e bea5 8d3e
000001f0: d843 b7bd 7377 b83d f7d7 663d 2402 26be
00000200: 89e8 4fbd 8e51 3abd 7e4d bfbc 73a9 74be
00000210: e770 45be e852 943c 0ad0 cc3c 8dc9 7cbe
00000220: a947 f23d ca6a 393e 2ff8 9b3e da0f 8f3e
00000230: 1232 22be 9405 afbd dce0 aebd e4cc 843d
00000240: f082 e33d 65f1 fb3d caca 593e e6d3 3e3e
00000250: 7455 ddbd b7ba 7e3e 2896 803e 35ad bb3d
00000260: 4c97 80be 2c8b 1ebe 29bd 013e d4cc de3d
00000270: 4b10 a23e 8468 543e 521b 273e a818 093d
00000280: f9f0 883e 370a 08be bc05 2a3e ca14 9bbd
00000290: 9156 403d 6eef 633e 5269 283e 2fa3 2dbc
000002a0: 2a87 f83c ef2c f1bd 4357 203e 1858 813e
000002b0: 0944 0b3e 3322 81be f394 15be 5810 773e
000002c0: 98b7 abbc 3d1b 723e c093 743e 4363 b7bc
000002d0: 5774 14be 02e3 8abe bd6d 2c3e 73e0 5c3e
000002e0: 9e47 bcbb 557d 8fbe dac6 35be 69a0 d53c
000002f0: 596f 0a3e b9c0 82bd ab74 2fbe 7886 21be
00000300: 5f38 943e 77d1 1f3e 8309 67be 9e1a 1fbe
00000310: ab40 52be c55d b43d 67e2 78bd 1845 513d
00000320: 78b1 2cbc 03f3 4dbe f340 5abe e701 31be
00000330: 829a f7bd cb75 c73d 3003 babd 761f 94bc
00000340: 3561 393c 1250 a53e b493 b4bd b0ea aa3e
00000350: 44ee 62be 8069 3abe 912c 123e b9a4 f6bd
00000360: 19b0 4f3e cae7 e1bd f8c6 683e 5c59 ac3e
00000370: 5a3c 6b3d 1dd9 b33d 36b7 a73e 55eb 583e
00000380: 7207 81be fb13 613d 61fd 72be 53e1 873e
00000390: ec93 58bd 0d94 283d aaa2 19be ef11 bbbd
000003a0: 40af 8f3d 099e 913e 5dba b0bd 69d9 843d
000003b0: 1cd6 a03e 72a4 a13e c16a aabc 0ffe a83e
000003c0: 1451 283e 0737 9f3e 0fe9 bcbc b394 53be
000003d0: a909 0abd 6a80 073e 0eb4 653e ce70 5dbe
000003e0: 3b6c 8e3e fef3 62be 6e7a 573e 6b24 ad3e
000003f0: 2d1d 723d a7a2 2bbd 01b8 653e 8bd8 5ebd
0.3247463 0.27774072 -0.18750243 -0.0700833 0.1777011 -0.107534654 0.067854404 -0.09215403
0.094183326 0.19299269 0.11339822 0.27642363 -0.036745474 0.18656719 0.14673838 -0.078371406
-0.13811707 0.29943106 -0.008665062 0.26850304 0.22600457 0.033268392 -0.22688061 0.04233494
-0.15242712 0.11219181 -0.11474496 0.25505167 -0.19820881 -0.016929276 0.09847636 0.068089955
0.2666537 -0.049380895 -0.17568718 0.24955502 0.1226997 0.23262486 -0.13611828 -0.16675998
-0.05875399 0.020524055 0.14709885 -0.16222203 -0.027179062 0.01536379 0.28269905 -0.045340266
0.27974653 -0.12872238 -0.07875862 -0.21712498 0.27688956 -0.20532514 0.17387095 -0.07607326
0.34413218 0.07444575 -0.25069034 0.07304075 0.08248843 -0.211157 0.08096478 0.33425194
0.14626265 0.031901225 -0.036044545 0.12942427 -0.06983746 0.31237328 0.29608697 0.19022977
-0.053009987 -0.24459624 -0.106942594 0.33822423 -0.19221018 -0.22196299 -0.03096573 0.09020087
-0.27984935 -0.2400688 0.007332789 -0.095688045 0.22769617 0.11751153 -0.25057653 -0.16984355
0.20223248 -0.038116958 -0.07865221 0.11946839 0.0034883446 0.1569416 0.11739047 -0.10277439
-0.16761683 0.18394288 -0.12316957 0.015275963 0.07636325 -0.09637184 0.21693635 -0.14796183
0.084595084 0.06931065 0.1638312 -0.28331074 0.096054144 0.20785809 -0.16313608 0.11528403
0.051080067 0.29171273 -0.032270584 0.058470175 -0.07121845 -0.061107147 0.09052824 -0.22633334
0.25082853 0.26127696 0.13406603 0.27665514 -0.08948487 0.09007158 0.056358304 -0.16211754
-0.050758872 -0.045487933 -0.02335238 -0.23892765 -0.1928135 0.018105939 0.025001545 -0.2468626
0.11830074 0.18107143 0.30462787 0.2794178 -0.15839413 -0.08545986 -0.08538982 0.06484392
0.11108959 0.12301902 0.21268764 0.1863552 -0.108073145 0.24875914 0.2511456 0.09163896
-0.2511543 -0.15482777 0.12669815 0.108789116 0.31653056 0.20742995 0.16319016 0.03347078
0.26746348 -0.13285147 0.1660375 -0.075723246 0.046957556 0.22259304 0.16446427 -0.010597988
0.030337889 -0.117761485 0.15658288 0.25262523 0.13600172 -0.25221404 -0.14607601 0.24127328
-0.020961568 0.23643203 0.23884487 -0.022386199 -0.14497505 -0.27126318 0.16838737 0.21569996
-0.005745842 -0.28025308 -0.17751637 0.026077466 0.13519038 -0.06384415 -0.17134349 -0.15773952
0.28949258 0.15607248 -0.22562222 -0.15537497 -0.20532481 0.088069476 -0.06076279 0.051091284
-0.010540359 -0.20112233 -0.21313839 -0.17285882 -0.12090017 0.09739264 -0.09082639 -0.018081408
0.01131468 0.3228765 -0.08817235 0.33382177 -0.22161204 -0.18204308 0.14274813 -0.12043137
0.2028202 -0.110305384 0.2273215 0.33661926 0.057430603 0.087816454 0.32756966 0.21183522
-0.25200993 0.054950695 -0.23729469 0.26539096 -0.052875444 0.041156817 -0.15003458 -0.0913428
0.07015848 0.28440884 -0.08629296 0.0648678 0.31413352 0.31570774 -0.020802857 0.3300633
0.16437179 0.3109667 -0.02306035 -0.20662193 -0.03370062 0.1323258 0.22431967 -0.21625063
0.27816948 -0.22163388 0.21042797 0.33816847 0.059109855 -0.041903164 0.22433473 -0.05440573

fc2.weight f4 [64, 256]
00000000: a8a0 3dbd 18ae 35bd b0bb f03c 6c83 433d
00000010: c0db 253b 0c37 78bd 328c 7bbd 103a 67bc
00000020: 9831 0a3d e098 2abd 4001 8a3c 04ec 0bbd
00000030: 0c49 503d f028 86bc 9866 55bc 5888 60bd
00000040: 0c4c 65bd e069 8a3b 6092 253c f64e 0a3d
00000050: 96da 5fbd 086d 333c 30ed 13bc 242b 163d
00000060: e8cd e8bc e089 983c 0852 ce3c 3499 003d
00000070: 489c afbc 64c4 a43c 98af 48bc fcde 893c
00000080: 4a6a 1dbd 846b 4bbd 8e67 51bd b6ed 20bd
00000090: 4cb1 d8bc a86c 183c a8fc 5fbc 10bc 11bd
000000a0: 80a2 093a 1cb0 a1bc 62ce 1d3d ced7 52bd
000000b0: d0fb bcbc 9883 24bd 60b4 fc3b e075 5f3b
000000c0: 60a0 6bbb 9200 7e3d d851 c3bc c02d 13bc
000000d0: 6847 843c 20a9 553d be0a 423d e0f5 e93b
000000e0: 08b4 c1bc 9433 a83c 4c12 213d 00d4 aeba
000000f0: 788d 0c3d 0c84 513d 2028 09bd d061 62bc
00000100: 127b 66bd 0810 6b3c de72 363d 08da 46bc
00000110: 0866 233c f499 a33c c0ba aeba 5c06 473d
00000120: 0038 153c 54a2 7bbd b866 53bd cca2 7dbd
00000130: 80d2 283b a862 0a3d c818 07bc 442c 663d
00000140: 7838 38bc 705b 513c 7ad8 663d 3c8f 013d
00000150: a0ac 02bb c895 763d 6ef3 18bd 20b5 be3c
00000160: 68ac 213d 5883 1ebd d278 70bd f8c4 a33c
00000170: 403f c2bc 3230 01bd d8ad 4b3c aab5 39bd
00000180: 543f 663d 30d7 b7bb 20f8 a3bc de02 563d
00000190: e48f 8e3c 4818 433c 94cd f4bc b4fc 733d
000001a0: 6cf0 9bbc 44ec 543d a08b 96bb 526b 003d
000001b0: daff 333d b697 3ebd f49f 2abd 8c25 7dbd
000001c0: aaa4 383d 0628 5c3d d41e bbbc 58c4 fabc
000001d0: 5868 2b3c 3ad3 093d 70c2 7c3c 6869 55bc
000001e0: ccd5 22bd d6f2 5a3d 02ca 25bd 605f 77bd
000001f0: 746d ccbc a031 4c3c 444e be3c 40f9 c53c
00000200: ec4c 14bd 1c80 c4bc 10ad e3bc dcf0 f7bc
00000210: 3a9f 57bd c89c 513c 04e6 94bc cc66 76bd
00000220: 9a7b 15bd 62bd 19bd 94db dcbc f82e 1ebd
00000230: d094 31bc 547b b73c 322f 4fbd f070 afbb
00000240: 2c59 93bc d2e1 02bd a060 63bc 6800 d9bc
00000250: 60ad 033b 2acb 38bd b030 423c b80a 6b3d
00000260: dc1f 543d 548f e5bc 18d0 9d3c e6f8 71bd
00000270: 9a89 573d de1e 7fbd b0c4 64bd 06cb 65bd
00000280: 44bc 6dbd 20ae 0a3c b863 87bc 8017 753c
00000290: c06f 7dbb 40f9 afba e0f9 b8bc 2ae2 17bd
000002a0: 6256 56bd 662c 013d 52fe 03bd 8842 50bc
000002b0: fcac f83c 109b 7dbc cc17 81bc 48a9 2abd
000002c0: a408 5bbd 38be f53c 7008 67bc 5cf9 203d
000002d0: d0ca 863b 007c a6b8 f81d 67bd 00dd b43a
000002e0: b06b 67bc 1815 12bd 08fe 6cbc 4022 563b
000002f0: 38e4 40bd 4046 2a3c ee20 323d d049 4a3c
00000300: 925d 743d b8eb ee3c e6e4 49bd d087 c9bc
00000310: 186b 76bc 3829 993c 00a6 e9ba 9a00 4e3d
00000320: 90e8 ed3b a420 22bd 10b5 bbbc 68fb 54bd
00000330: 6c2c 8dbc 74ba fb3c 8036 1e3a 6a1f 74bd
00000340: 2884 5dbd a49f b93c 1eb1 60bd d030 4cbd
00000350: 8aa1 18bd 90ff 733d c495 91bc 2819 d3bc
00000360: c0da 2cbd d8c3 233d 1058 25bc 8076 453c
00000370: 909f 743c cc65 903c d8dc 233d 408e 543b
00000380: 10d7 d33b 50ff 84bb e2ed 46bd 3857 6abc
00000390: 2aa6 733d d46e 35bd 5e90 21bd 4808 7ebd
000003a0: 405f 783b 4a71 6fbd 281f 03bd 90e3 6b3d
000003b0: 6c0d d43c b863 083d 3857 2f3c 2a8b 59bd
000003c0: 643e eebc 3a3f 4fbd c44c 1ebd d05b ae3c
000003d0: 5c01 8ebc ec2d 7a3d ee9c 3abd 1479 5abd
000003e0: 68c6 7c3d aa25 5dbd a2d6 593d c8de 893c
000003f0: e054 69bd 80f8 5e3d 9863 8bbc e41d d3bc
-0.046295792 -0.044355482 0.029386371 0.047732756 0.0025307983 -0.06059937 -0.061412998 -0.014112964
0.033738703 -0.0416497 0.0168463 -0.03416063 0.050850913 -0.016376942 -0.013024949 -0.054817528
-0.055980727 0.004224047 0.010105699 0.03376671 -0.05465182 0.010951288 -0.009028718 0.036662236
-0.028418496 0.018620431 0.0251856 0.031396106 -0.021436825 0.020113178 -0.012248896 0.01682996
-0.038431443 -0.04966308 -0.051124148 -0.0392892 -0.02645173 0.009303249 -0.013671078 -0.03557974
0.00052503496 -0.019737296 0.0385269 -0.05147534 -0.023069292 -0.04016456 0.007711932 0.0034097359
-0.0035953745 0.062012263 -0.023842737 -0.008983076 0.01614733 0.052163243 0.047373526 0.0071399063
-0.023645416 0.020532407 0.03932409 -0.0013338327 0.034314603 0.05115132 -0.03348553 -0.013817266
-0.056269713 0.014347084 0.04454314 -0.012136944 0.009973057 0.019970872 -0.0013330802 0.04859005
0.00910759 -0.061434105 -0.051611632 -0.061922833 0.0025760233 0.033785492 -0.008245654 0.05619456
-0.011243932 0.012778148 0.056358792 0.03163074 -0.0019939318 0.060201436 -0.037341528 0.023279727
0.03947106 -0.038699478 -0.058708973 0.019991383 -0.0237118 -0.031540103 0.012431584 -0.045339264
0.05621274 -0.005610369 -0.020015776 0.052248828 0.017402597 0.011907645 -0.029883184 0.05956717
-0.01903554 0.051983133 -0.0045942813 0.03135235 0.04394517 -0.0465314 -0.04165645 -0.061803386
0.04507891 0.053749107 -0.022841848 -0.030611202 0.010461889 0.033648707 0.015427217 -0.013025619
-0.039754674 0.053454243 -0.040475853 -0.06039369 -0.024954535 0.012463003 0.02323068 0.024166703
-0.03620617 -0.023986869 -0.027792484 -0.030266218 -0.052642085 0.012793727 -0.018176086 -0.06015663
-0.03649483 -0.037534125 -0.026960172 -0.03861901 -0.010838702 0.022397675 -0.05058212 -0.0053540394
-0.017986856 -0.03195364 -0.013878018 -0.026489452 0.0020092353 -0.045115627 0.011852428 0.05738327
0.051788196 -0.028022446 0.019264266 -0.05907526 0.05262146 -0.062285297 -0.05585164 -0.05610182
-0.058040872 0.008464366 -0.016527042 0.014959216 -0.0038671345 -0.0013425723 -0.022580087 -0.03708092
-0.052328475 0.031536482 -0.03222496 -0.012711175 0.030355923 -0.015478864 -0.015758418 -0.041665345
-0.053475037 0.02999793 -0.014101133 0.039300308 0.0041135326 -7.9385936e-05 -0.056425065 0.0013798773
-0.014124796 -0.035664648 -0.014464863 0.0032674223 -0.047092646 0.0103927255 0.043488435 0.0123467
0.059659548 0.029165134 -0.04929056 -0.024600893 -0.015040182 0.018696412 -0.0017825961 0.050293542
0.0072603896 -0.03958191 -0.022913486 -0.051997572 -0.017233096 0.030728556 0.0006035343 -0.05960027
-0.054081112 0.02265913 -0.054856412 -0.04985124 -0.03726343 0.059569895 -0.01777161 -0.025768831
-0.042200804 0.039981693 -0.0100917965 0.012052178 0.014930621 0.017626666 0.040005535 0.003243342
0.0064648464 -0.004058756 -0.048566706 -0.014303021 0.05948464 -0.044295147 -0.03944432 -0.062019616
0.003789857 -0.05845765 -0.032012135 0.057590067 0.025885306 0.033298224 0.010701947 -0.053111233
-0.029082485 -0.050597407 -0.03864743 0.021284014 -0.017334633 0.06107895 -0.045559816 -0.053338125
0.061712652 -0.053990997 0.053183205 0.016829863 -0.05696571 0.054436207 -0.017015263 -0.025771089

fc2.bias f4 [64]
00000000: 3862 313c 2e66 223d a304 423d ec52 503c
00000010: 790e 28bc 52b8 d43c 06be 33bd a6c7 353d
00000020: 77ea d43d 3642 803d c6e7 20bc 1ef6 dc3c
00000030: 7048 043d 8b4c b93c c211 9f3d c110 ae3d
00000040: 6b89 9c3d 5797 48bd b2e4 02bd d6a7 773d
00000050: 8280 183d 66f8 713c 7cc8 fa3c b8ad a2bb
00000060: 8413 88bc f6b5 10bd 5a61 3f3d a54f 963d
00000070: f5e9 80bd 833c c13d d7bd 24bd 46e3 62bc
00000080: c279 613d 4bc4 b43d 49f1 d53d b978 35bd
00000090: 9728 353c dd0b 263d b8cd cf3c 8e82 3dbd
000000a0: 109c 52bd a55b 1cbc dce3 ee3c 54bf 08bd
000000b0: 5f5a 1f3d 6b18 7dbd a38b bc3d 8bb6 f33c
000000c0: da78 c63d 11bd 8abd c782 803c 9177 aa3b
000000d0: 0104 86bd 543d a43c 0441 c33d 06b0 2a3c
000000e0: 4a67 e13c 37b9 283c 5692 7fbd b483 a23d
000000f0: d88d 883a 1df0 383d 0b37 0e3d 16d1 4b3d
0.01082664 0.039648227 0.047367703 0.012715083 -0.010257357 0.025966797 -0.043882392 0.044379853
0.10396283 0.06262629 -0.009820884 0.026972827 0.032295644 0.022619506 0.07767059 0.08499289
0.07643398 -0.048972454 -0.031956382 0.060462795 0.03723193 0.014768695 0.030613177 -0.0049645565
-0.016610868 -0.03532978 0.0467237 0.0733941 -0.06294624 0.0943537 -0.040220108 -0.0138481315
0.055047758 0.088265024 0.10446412 -0.044304583 0.011057041 0.040538657 0.025366649 -0.046267085
-0.051418364 -0.009543334 0.029161386 -0.03338559 0.038904544 -0.061790865 0.09206321 0.02975013
0.09691019 -0.06774343 0.01568736 0.0052022417 -0.065437324 0.020048775 0.09533885 0.010417944
0.027515072 0.010298065 -0.062395416 0.07935277 0.0010418249 0.045150865 0.03472046 0.049759947

fc3.weight f4 [4, 64]
00000000: ac77 18bd b01b e8bd dafa 65bd 4312 823d
00000010: 5c19 3d3d 597c 5c3d 7016 a9bd ea22 0abe
00000020: e3d5 ffbc 1ce6 0cbe 86fb 5f3c dcc3 6d3d
00000030: 4a74 5e3d b67e dabd e775 873c ff84 923d
00000040: 94a8 3abd 51f8 e53d b459 0f3d 6546 c4bd
00000050: 4bf9 713c 8a13 c43d dca0 52bd ee6a 223d
00000060: f038 633c 5c24 483d 9957 a0bc b0b4 d7bd
00000070: 3c1e 593c 1dd2 653d 57d6 69bd 0c14 133d
00000080: ab09 e0bb 3c66 a2bd 8c9c bbbd dfa4 92bd
00000090: 660b a83d d4f7 12bb aa98 3e3d 5038 de3c
000000a0: e9a2 93bd cf3e 49bb 58f6 4cbc 946b 293d
000000b0: 98f5 e8bd 00e9 6bbd f465 8e3d c7c4 f8bd
000000c0: d3f0 413c d705 803d 6690 603d 0daf 353d
000000d0: e4a4 1d3d ecab 73bd 0458 fe3c 5398 7b3d
000000e0: a15a c8bd 6699 cf3d 4837 8cbd b1c0 77bc
000000f0: 982e 2cbd ff41 57bc a03f f33d b9ca 00bc
00000100: bcfd cc3d 84a7 17be 358c 9abd 4a1c 00be
00000110: 7265 9bbd 5921 bf3d 4862 91bd ff79 b23c
00000120: 7400 f3bd 398e ee3d b233 8abd a8f1 ecbc
00000130: d5ad 1f3e cd0a 9dbd fb33 133d 0f89 11bd
00000140: c814 2c3d 5858 43bd 5a62 7a3b fe94 d8bd
00000150: 7095 acbd 0be1 27be d9b8 d3bc 9591 f33d
00000160: 904f 753c 8c14 3b3d 98a1 a1bd c01c 90bd
00000170: 6d0a af3d 6d2b 2bbe ffdc f3bc 79ab 1ebe
00000180: 6264 01be 5711 2a3d 2efc 243c fccd a4bd
00000190: f8bd 503d 8abf c53d 0d7a a3bd 7491 683d
000001a0: 773b 12be 4c27 acbd 8db5 0abd f003 1dbc
000001b0: bcfe 63bd e8c7 afbd 7635 b2bd 982e fdbd
000001c0: d161 0fbe f5d9 e43c 37db 5d3c 1ef5 21be
000001d0: cb16 64bd 0f84 99bd 7d3a cbbd b835 2ebd
000001e0: df89 05be 9806 963d 5910 013d a010 f8bb
000001f0: 455a 1c3d f64b 0ebe 75af 9abc ed6f 28be
00000200: da4c 8abd 62ff 6bbc 9b90 29be 8ae5 d63d
00000210: 2dd2 413d 9ace 043b c03c 693b 57b3 e3bd
00000220: 3908 40bd 1875 c43c d234 f1bd 30c6 7abd
00000230: 8abf b3bd fc47 f8bd 59e6 2cbe a95a 29be
00000240: 2064 dfbd 5813 9d3d 2104 803c 1c9f f8bd
00000250: 508a d33d 4353 07be bbb5 c0bb 3e22 e53d
00000260: 6256 c03c 14d4 7dbd 50f4 1dbd 656f 31be
00000270: 45e5 043d a373 28be cc9d 903d c68f ddbd
00000280: ad1e 99bd d5ec b5bd c61b 3abe 2c12 c93d
00000290: 64cb 8b3d 1d2d 7c3d 702d da3d 0663 f13d
000002a0: 7d5a d23d 05b6 a8bb 7612 ddbc 606b eebd
000002b0: 0cc1 083d 76e6 d63a ade8 abbd ba85 56bd
000002c0: ba94 d4bd e34e e23d 457e abbd 6343 41be
000002d0: 60d8 c33c 0fca dd3d 4eb2 09be 13d2 aebd
000002e0: 66b6 a5bd 3fad 3dbe d3d9 123d 3c1d 1cbe
000002f0: b935 1cbd 963e debd e3e6 d13c 621d 3abe
00000300: 8036 d93c 0d09 f23d 015f 533c 92f5 6cbd
00000310: 9669 b23c 4c06 373d e4e1 da3d a50b 6b3c
00000320: c590 0dbd 2a3d 0cbe 5dff 4e3c 696a 693c
00000330: f05c 073e 5581 a63d 0e5d 3d3d 530f ecbc
00000340: ea54 f9bd 796c fd3d 0702 35be 0bda 65bd
00000350: 756a 89bd 3b9e 253d b3d0 bf3d f302 a2bd
00000360: dcd6 2e3d 08c1 ca3d 4d06 9dbd 24be d2bd
00000370: 9afd cbbd d998 afbd 2d71 a1bd f0eb 643d
00000380: 4beb ffbc 38ca cfbd 6912 0bbe e262 963c
00000390: b011 933c 572c 03be 8df5 d63c a2fe afbd
000003a0: 7b6c f0bd 39e0 f5bd 1e1d 25be e28a a23d
000003b0: 8ae9 f43d 3663 d53d 635d dfbd b984 3fbd
000003c0: 6207 eabd 6447 50bd e6f3 233d c748 853d
000003d0: 41e8 203d 4045 773c e02d 4bbd ee55 e33c
000003e0: 701c 78bd f51a 16be 1fa2 a83b e419 b83d
000003f0: 116c c13d cd36 65bd 575a 1fbe f901 babd
-0.037223503 -0.11333406 -0.056147434 0.063511394 0.046166763 0.053829525 -0.08256233 -0.13489881
-0.031229919 -0.13759655 0.013670808 0.058048114 0.05431012 -0.106686994 0.016535712 0.07154273
-0.045570925 0.11229003 0.034997657 -0.09583739 0.014768909 0.09574039 -0.05142294 0.039652757
0.013868555 0.0488628 -0.01957302 -0.1053251 0.013251837 0.056108583 -0.057089176 0.03590779
-0.00683709 -0.07929656 -0.09160718 -0.07160353 0.08205299 -0.002242555 0.04653231 0.027126461
-0.07208807 -0.0030707603 -0.012509905 0.04136236 -0.11374968 -0.057595253 0.0695304 -0.12146907
0.011837202 0.06251114 0.05482521 0.044356395 0.03848733 -0.05949013 0.031047828 0.061424565
-0.09782911 0.1013668 -0.068464816 -0.015121625 -0.042036623 -0.013138293 0.1187737 -0.007860833
0.100093335 -0.14809996 -0.075462736 -0.12510791 -0.075877085 0.093325324 -0.07098824 0.021786688
-0.11865321 0.116482206 -0.06748141 -0.028923824 0.15593655 -0.07668076 0.035938244 -0.0355311
0.042012006 -0.047691673 0.0038205595 -0.10575293 -0.084269404 -0.16394441 -0.025844978 0.11893002
0.014972582 0.045673892 -0.0789215 -0.070367336 0.085469104 -0.16715784 -0.029768465 -0.15495099
-0.12635949 0.041520443 0.01006989 -0.08047101 0.05096242 0.09655674 -0.07982264 0.05677934
-0.14280497 -0.08405933 -0.033864547 -0.009583458 -0.055662856 -0.08583051 -0.08701603 -0.12362403
-0.14002158 0.027935961 0.013541034 -0.15816161 -0.0556858 -0.07495891 -0.09923265 -0.0425317
-0.13040875 0.073254764 0.03150973 -0.007570341 0.038172025 -0.13896164 -0.018882493 -0.16448946
-0.067529395 -0.01440415 -0.16559069 0.10493 0.04731958 0.0020264746 0.0035589188 -0.11118191
-0.04688284 0.023981616 -0.11777653 -0.061224163 -0.087767676 -0.12123105 -0.16884746 -0.1653849
-0.10907769 0.07669705 0.015626969 -0.12139723 0.103291154 -0.13215356 -0.005881039 0.11188172
0.02347869 -0.06196983 -0.038563073 -0.1732765 0.03244521 -0.16450362 0.07061347 -0.10818438
-0.07476554 -0.08883063 -0.18174657 0.09817919 0.06825903 0.06156646 0.10653198 0.11786465
0.102711655 -0.0051486515 -0.026986342 -0.11641574 0.03338723 0.0016395587 -0.08393989 -0.052373625
-0.1037993 0.11050203 -0.083736934 -0.18873362 0.023906887 0.10829555 -0.13446924 -0.08536162
-0.0809143 -0.1852312 0.035852265 -0.15245527 -0.03813717 -0.10851781 0.02562279 -0.18175271
0.026515245 0.118181325 0.012901069 -0.05785138 0.021778863 0.04468374 0.106876165 0.014346038
-0.03456189 -0.13695207 0.012634126 0.014246562 0.13219047 0.08130137 0.046231322 -0.0288159
-0.12174399 0.12374205 -0.17676555 -0.056116145 -0.06709758 0.040434103 0.09365978 -0.07910719
0.042685375 0.09900099 -0.076672174 -0.10290173 -0.0996048 -0.08574075 -0.07882915 0.05588907
-0.031240126 -0.10145992 -0.13581242 0.018357698 0.01795277 -0.12809883 0.026240135 -0.08593489
-0.11739441 -0.12005658 -0.16124389 0.07936646 0.119586065 0.104193136 -0.10906484 -0.046757434
-0.114271894 -0.050849333 0.04002752 0.06508022 0.039283995 0.015092194 -0.049604297 0.027750935
-0.060573995 -0.14658721 0.0051462795 0.08989313 0.0944444 -0.055960465 -0.15561806 -0.090824075

fc3.bias f4 [4]
00000000: 871a bdbc 44a7 b4bd a4b2 d5bd c191 113d
-0.023083938 -0.08820966 -0.104344636 0.035539392
