pettingzoo/pettingzoo/sisl/checkpoint2.pth (torch, 82287 bytes, 6 tensors)

fc1.weight f4 [256, 12]
00000000: 22b7 d33e 4796 96be 095c 36bf 17a8 40bf
00000010: 88b8 3a3e ec45 9d3e 678e 783e 32ec 313f
00000020: 59e2 a5be 8984 40be 2103 fd3e 7a7e eebd
00000030: e369 58bf 39c1 cabe 19fe 07bf 72c0 9abe
00000040: aa4b d33d 8023 143f 62a5 efbe 5f2d 23bf
00000050: 88ad 3db8 897d 5c3e 53ae 48bd e46d 97bc
00000060: b45e 943e 9d0d 093d 910b b33f 4da4 89bf
00000070: 793d a3bf 063b 46be 20e8 4b3c 9bf2 013f
00000080: e11e 883d 1ca9 20be 770c 10bb 3e02 673d
00000090: 4fcd 9b3c c26d c03d 4a6a 053f ae60 323e
000000a0: 54a5 e73e 158a 2a3f bac5 4e3d 249a 9ebe
000000b0: 43b0 89bf ac44 e9be fc87 593f 6c0b 69be
000000c0: 94e4 393f 0c86 2ebf 7b8b 963f de9a e13e
000000d0: 2537 65bf 8f4c c63e e59b c7bd f769 40bf
000000e0: 1ca8 273f 27c3 64bf 7bbf 00bf 8b4c e3be
000000f0: e346 923d f228 6bbe 0eb3 8d3e aceb 07bf
00000100: 82d9 a33d 8754 e8bd c747 153e 95f2 443e
00000110: e7ca 4b3f a104 273f 1509 99be a983 19bf
00000120: 7eea 66bd e6ff 073f 7865 9d3e 6aa6 193f
00000130: 8170 c9be 68c4 14bf 824e 87be 43be 01be
00000140: 6c6c 4cbf 9cbd 8b3e 283e 843f 6cda 16bf
00000150: 88f9 d2be e3a1 08bf 4c15 cabc 833a d8bf
00000160: f21b ecbe 7c9c d03e 1ba8 093c a477 d53e
00000170: f2ab 9c3d d7ba f93d c6ba 87be 8cd8 3bbc
00000180: 92b4 a6be 3866 abbe cfef e6bf 78ee 86bf
00000190: 5b43 943f fcb2 c73e 8f69 d03b ea7c 1abe
000001a0: 53da 9e3c 1a56 993e e6c8 c3be 9273 61bf
000001b0: 7e28 21be fd60 aebe d6d5 f8bd 9bc7 13bf
000001c0: 7d9e 37bf 358f da3f ec32 043f 1d64 0bc0
000001d0: 21bf 633e c170 223f f3a1 0f3e b09d 273f
000001e0: de87 acbe 8eb9 a4bd 666d 1ebf 1221 a03e
000001f0: 1d0b b7bf a3ef 2fbf 1606 3fbf d0e6 ce3d
00000200: 75a9 c93e c77d 12bf 2e3a bc3e 7aba 84bc
00000210: b4b5 25bf e342 dcbf bd7b 8d3f f45f a0bf
00000220: f6a6 203e 6a82 353e 0bc4 753e ca71 be3e
00000230: 42e0 74bd 013f d73c 3cb6 d03e a7e3 e8bd
00000240: fa8e 7bbf d36a 09c0 bc28 433f 35cd 87be
00000250: afe4 863d 996b 6cbe 6c46 133f 049c a63e
00000260: ce76 173b a8d8 b5bc 2bf5 f93e edd4 dbbe
00000270: 7c31 013f af6a 48bf 6b10 3c3f dfdd ec3e
00000280: 2957 8dbe 3ce9 913d 14ce 0dbf f0d6 c5bf
00000290: 76bb fbbd 04c7 433e 24d4 bb3e f201 0c3f
000002a0: f05b ddbe 5be1 f5bb d12b a2be f9b2 b3be
000002b0: b388 643f d97d dbbd 2324 9e3d aad2 803d
000002c0: 2abb 0b3f 02f8 1bbf b033 293f 8496 c8bc
000002d0: 4b63 de3e c62e 7b3f 420c 9a3f b6b2 023f
000002e0: ca49 60bf 1d45 c9be 92ac b4bd 6200 823c
000002f0: fc17 4cbf de43 923f 3988 f03e 9e0e 9dbe
00000300: 990b debe 1c6a 62bf 41f1 5dbf 9b9b 79bf
00000310: 6b97 0b3d 52f3 8abf e930 76be 9462 04bf
00000320: 48eb 083f b05a 0c3f aa25 4fbf 9f00 393e
00000330: ac9c cbbe a8da 573f 8250 d03e a9c6 253f
00000340: e05e 6d3f b1b0 e33f 6fae b8bd c6aa 1b3e
00000350: c9fe 01be 2573 1f3e e280 8d3e 3e1c 713e
00000360: 97e6 46bf ec5d e2be a7bc 49bf d5de 83bf
00000370: 8de0 6ebf c025 19be 0a5e b0bd b0ec 763e
00000380: 61fb 193e ba27 943e 5f2c 943e 14eb 163e
00000390: a8ef 513e b206 013f ddc0 263f 45f7 a33c
000003a0: 2edc 303f 4b98 7a3f 50c8 f73e 92a4 a6ba
000003b0: d744 a63d ef41 cfbd b8be de3e c360 b93e
000003c0: 9774 8bbe 65f9 f5be 8c1d 903f fa93 1d3f
000003d0: 8c82 1940 ab20 7e3f 3080 4f3d 9324 e2be
000003e0: ed81 ef3d 1b42 a43f 00bd 52bf 1cc2 05bf
000003f0: db37 183f ae23 2c3f 2a08 61bf 7735 5dbf
0.41350657 -0.29411528 -0.71234185 -0.75256485 0.18234456 0.3071741 0.24273072 0.6950103
-0.32399252 -0.18800558 0.4941645 -0.11645217 -0.8453657 -0.39600542 -0.531221 -0.3022495
0.10317166 0.5786667 -0.46805865 -0.63741106 -4.5222725e-05 0.21532263 -0.048994374 -0.018485017
0.28978503 0.03346025 1.3987905 -1.0753266 -1.2753135 -0.19358453 0.01244548 0.5076081
0.06646515 -0.1568951 -0.0021980086 0.056398623 0.019018797 0.09395935 0.5211531 0.17419693
0.45243323 0.66616946 0.050481535 -0.30976975 -1.0756916 -0.45560205 0.8497312 -0.22758263
0.7261441 -0.6817329 1.1761316 0.44063467 -0.8953727 0.38730285 -0.097465314 -0.7516169
0.6549089 -0.8936028 -0.50292176 -0.44394335 0.07142427 -0.22964838 0.2767567 -0.5309398
0.08000471 -0.11344247 0.14578162 0.19233163 0.7960648 0.6524144 -0.29889742 -0.5996652
-0.056375973 0.53124845 0.30741477 0.6001955 -0.39343646 -0.5811219 -0.26427084 -0.12670235
-0.7985294 0.27293098 1.0331469 -0.58927035 -0.41206002 -0.5337202 -0.024668358 -1.6892856
-0.4611507 0.40744388 0.008401896 0.4169284 0.076499835 0.1219384 -0.26509684 -0.011465203
-0.3255964 -0.33476424 -1.8041934 -1.0541525 1.1583055 0.39003742 0.00636024 -0.15086713
0.019391214 0.29948503 -0.3823921 -0.8806697 -0.15738103 -0.3405837 -0.12150161 -0.5772645
-0.7172621 1.7074953 0.516402 -2.1779854 0.22240879 0.634533 0.14026622 0.6547499
-0.33697408 -0.08043204 -0.6188568 0.3127523 -1.4300267 -0.6872503 -0.7461866 0.10102618
0.39387098 -0.5722317 0.36763138 -0.0162022 -0.6473038 -1.7207912 1.1053387 -1.2529283
0.1568869 0.1772553 0.24000566 0.3719619 -0.05978418 0.02627516 0.40764034 -0.11371546
-0.9826504 -2.147145 0.7623403 -0.26523748 0.06586587 -0.2308792 0.5752933 0.32540905
0.0023111585 -0.022198036 0.4881986 -0.42935887 0.5046613 -0.78287786 0.7346255 0.46263024
-0.2760556 0.07124564 -0.55392575 -1.5456219 -0.12291615 0.19118887 0.36685288 0.5469047
-0.43234205 -0.007503671 -0.31674054 -0.35097483 0.89271086 -0.10717363 0.07721736 0.06290181
0.54582465 -0.60925305 0.66094494 -0.024485834 0.4343513 0.98118246 1.2034991 0.5105394
-0.87612593 -0.39310542 -0.08821978 0.015869323 -0.797241 1.1426961 0.4697893 -0.30675215
-0.43368223 -0.8844316 -0.8669625 -0.9750306 0.03407995 -1.0855505 -0.24042095 -0.5171292
0.5348401 0.5482588 -0.80916846 0.18066643 -0.3976797 0.8431802 0.40686423 0.64756256
0.9272289 1.7788297 -0.090176456 0.15201864 -0.12694849 0.15571268 0.27637392 0.2354593
-0.776956 -0.44212282 -0.78803486 -1.0302378 -0.9331139 -0.14955807 -0.086116865 0.24113727
0.150373 0.2893656 0.28940102 0.14738113 0.20501578 0.5040084 0.65138036 0.020015368
0.6908597 0.9788863 0.48395014 -0.0012713841 0.08118599 -0.10119998 0.43504882 0.36206636
-0.27237388 -0.48041835 1.1259017 0.6155392 2.398593 0.992686 0.05065936 -0.4416853
0.11694703 1.2832674 -0.8231964 -0.5224931 0.5946023 0.6724194 -0.8790308 -0.86409706

fc1.bias f4 [256]
00000000: d200 a03f 09eb 093f 036e b1be 3861 41be
00000010: 1e49 e1be af53 36be 34d3 a2bd 5119 0ebf
00000020: bd8b b8be 6372 48bd 776d 8b3e c6cc 973e
00000030: d044 f03e 6c68 473f 18c8 aebe ed03 ba3e
00000040: 9bbb 263e 1735 76bd 484a 17bf b3ee b1be
00000050: ae43 0cbe 9c16 303e 7bb7 6abe 7c1f 163e
00000060: 16fa 2bbe 5c23 153f 1b0b 1d3f be56 563f
00000070: 7971 1cbf fc17 54be 443b 51bd 56ef 26be
00000080: 9284 2a3f be99 91be 5975 8b3e 0acf 57bd
00000090: 8490 8ebd 6a4c 8b3e 4f9d 0a3e a4f4 44bc
000000a0: 43d1 a43d 382c c4be 4acd 99be c1e1 b8be
000000b0: 0efa b53d a134 70bf d25c 333f 2898 53be
000000c0: 3324 d93e 1627 9bbe 8df7 493f d1dd 493f
000000d0: fe40 cc3e b704 9fbd 244e 94be 3f38 50be
000000e0: b0be 903f d938 cb3f 12a8 a8bf 16e5 dbbd
000000f0: 21ee af3d b1b1 df3e fdda acbd ec23 9b3f
00000100: 8699 46be a204 e63d ac0a a93d 81e1 ae3e
00000110: 2abe 84be f4f4 5d3f 290a 0c3e 43a8 f1bd
00000120: 5e62 53be 01f0 c8be dc68 92be 9049 96be
00000130: 7bdc 58be 57c6 e23e 960f 10bd 28c0 1f3f
00000140: a1b6 4fbd c563 4dbf b22d 3fbf 0abf 8abd
00000150: e8af c53e 8368 b43e 609c b6be b679 77be
00000160: 026d 2d3f 247d 15bf 7226 dc3e 6161 dbbe
00000170: 9d93 893e 4b81 98be 3cca ba3e cda5 89be
00000180: 3f5b dabd 2fe2 153f 05ea 68be 86be e8bd
00000190: a76f b23e 5fa0 85be 74df 673f 1572 9abe
000001a0: 63f5 f0bd 0639 fa3e 4de3 26be 5c5e d53e
000001b0: 08c7 06be 245d a43e f7f6 c9bd 09b5 9fbd
000001c0: 5f6c f53e 75f6 023f 7d5c fb3a bf4f 29be
000001d0: 99ce 93be 1c75 2a3f f5c1 27be ac1e d3be
000001e0: 6ef2 013f 114c 263f 5bbd c03e 0f64 1ebd
000001f0: 6425 04bf 65ba 07bf d1de 96be e814 4f3e
00000200: 861f cc3d dfe2 0ebf bc3e c43f cdf2 13bd
00000210: a054 08bf d339 8bbd 2530 013f 2bbc a9bc
00000220: d652 08bf 72b3 323f c154 bdbe bb5f 633f
00000230: 7b95 b9bf 7707 a8ba ce64 d1be 956d c83e
00000240: 820b 9e3b d79e 863f c91f 253f 0f26 a63e
00000250: 9bcf 56bf 581f 133f 831c 883f ba2e 33bf
00000260: bdc5 3b3f aea2 5c3e f57f 953e b663 82be
00000270: 216e d83f b799 94bd 2b96 fdbd 5710 4bbf
00000280: c4a9 92bc e5a5 8fbe 36d7 363d 7518 003d
00000290: bd4d cabe 9ace 233f a264 90be 20dd a5be
000002a0: a5dd 883e 6ecb 42be d3af be3e 7299 d23d
000002b0: c145 143f 3440 80be 0974 a4be 8998 b83e
000002c0: 6677 593f e234 503e c656 473f 58cf dc3d
000002d0: 968d 22bd b11c 803e 1e5f 41be d335 d23e
000002e0: e84b 41bd cbf6 c0bd 0fd4 e3be 0eb1 623e
000002f0: 8ac2 17be 2ef8 60be ef5a 8ebe 9384 bfbe
00000300: 6f5d 42be 5c4a 9ebd a489 20bf 6c20 31be
00000310: 9b6b fcbe 307e 9b3e f2ca 083f 9c10 96be
00000320: 106a 55be 2f7b 9dbe d253 36bf bc4b b3bf
00000330: acd1 edbe 265f 89be ceab 8b3e 16e6 a2be
00000340: 44f7 e7be 84b4 023e 1813 2cbf 875c c33f
00000350: 0dff 55be 7aac 13be 52c2 273f de58 7fbf
00000360: b8a5 503e b924 fabd f15e a63e 758f 923d
00000370: c56d ee3d d4d0 093f f721 963f 370a 18bf
00000380: c147 14be 49a9 7e3c 61bb 2bbf 84d1 203f
00000390: dbec abbe 5eef 433d b0e0 ddbe edca 29bf
000003a0: 5a35 9ebe 4de2 9e3e 502f b0be 76bf 0abf
000003b0: 6215 a13f 1ee4 98be 9903 4fbe a6db 8a3e
000003c0: 07d0 74be 01f0 803d 143e 7ebf 74a2 9fbf
000003d0: 55e0 af3e f039 23bf 90bb 263f 4c56 a7bc
000003e0: 4c42 7e3d 43ba 1cbe 6218 f83e cc1a a43e
000003f0: 91cb 983d 8ef3 553e c02b 4f3e db70 70bd
1.250025 0.5387426 -0.34654245 -0.18884742 -0.44001096 -0.1780536 -0.0795044 -0.5550738
-0.36044112 -0.048937213 0.27231953 0.29648417 0.469275 0.7789371 -0.34137034 0.3633112
0.16282503 -0.060109224 -0.5909772 -0.34752426 -0.13697693 0.17196125 -0.22921555 0.14660448
-0.16794619 0.5825708 0.6134507 0.8372611 -0.61110646 -0.20712274 -0.05108191 -0.16302237
0.66608536 -0.28437608 0.27237967 -0.052687682 -0.06961158 0.27206737 0.13536571 -0.0120212175
0.08047726 -0.38314986 -0.30039436 -0.36109737 0.08885585 -0.93830305 0.7006351 -0.20663512
0.4241043 -0.30303258 0.7889336 0.7885409 0.39893335 -0.07764571 -0.28965867 -0.20333956
1.1308193 1.5876724 -1.3176291 -0.10737054 0.08590341 0.43690255 -0.08440206 1.2120337
-0.19394502 0.112313524 0.082539886 0.3415642 -0.25926334 0.86701894 0.13675751 -0.117996715
-0.20642993 -0.39245608 -0.28595626 -0.29353 -0.21177857 0.44291946 -0.035171114 0.6240258
-0.050711278 -0.8023036 -0.746791 -0.06774719 0.38610768 0.35235986 -0.3566618 -0.24167523
0.6774446 -0.58394074 0.4299808 -0.42847732 0.26870432 -0.29786143 0.36482418 -0.26884308
-0.10661935 0.58548254 -0.22745521 -0.113644645 0.3485081 -0.26098916 0.9057534 -0.30165163
-0.11765554 0.4887163 -0.16297646 0.41673553 -0.13161862 0.3210231 -0.09861558 -0.077982016
0.47934243 0.51157314 0.0019177344 -0.16534327 -0.2886856 0.66584945 -0.16382582 -0.41234338
0.50760543 0.6495982 0.37644467 -0.038669642 -0.51619554 -0.5301879 -0.2946687 0.20222819
0.0996695 -0.5581493 1.5331645 -0.036120225 -0.5325413 -0.067981385 0.5046409 -0.020719608
-0.532514 0.6980506 -0.36978725 0.8881795 -1.4498743 -0.0012819608 -0.4089722 0.39146104
0.004823149 1.0517224 0.64501625 0.3245091 -0.8391053 0.574697 1.0633701 -0.69993174
0.733486 0.21546432 0.29199186 -0.25466698 1.6908609 -0.07255881 -0.12382158 -0.7932181
-0.017903216 -0.28056255 0.044638835 0.031273324 -0.39512435 0.63987124 -0.28201777 -0.32395267
0.267316 -0.19022915 0.37243518 0.102831736 0.57918936 -0.25048983 -0.32119778 0.36053875
0.8494781 0.20332673 0.7786678 0.10781735 -0.039685808 0.2502189 -0.1888394 0.4105669
-0.04719153 -0.09422072 -0.44497725 0.22137854 -0.14820305 -0.21969673 -0.27803752 -0.37405834
-0.18980955 -0.07729027 -0.6271002 -0.17297524 -0.49300846 0.3036971 0.5343467 -0.29309547
-0.20841241 -0.30758044 -0.7122165 -1.4007487 -0.4644903 -0.26830405 0.27279514 -0.31816167
-0.45305836 0.12764174 -0.67216635 1.5262612 -0.20898075 -0.14421263 0.65530884 -0.99744976
0.20375717 -0.122140355 0.3249431 0.071562685 0.116420306 0.5383427 1.1729115 -0.59390587
-0.14480497 0.01554329 -0.6708279 0.62819695 -0.33579144 0.0478357 -0.43335485 -0.66325265
-0.3090008 0.3103203 -0.34411097 -0.54198396 1.258465 -0.2986154 -0.20216216 0.27120703
-0.23907481 0.06295777 -0.99313474 -1.2471452 0.3435084 -0.6376028 0.6512995 -0.020426892
0.062074944 -0.15305428 0.48456103 0.32051694 0.07460702 0.2089369 0.20231533 -0.058701377

fc2.weight f4 [64, 256]
00000000: fc89 70bd 475a 6bbd b0bb f03c 6c83 433d
00000010: c0db 253b 0c37 78bd 328c 7bbd 103a 67bc
00000020: c7e3 a83c 32e2 acbc 4001 8a3c d308 41bd
00000030: a757 133d 030c 00bd d19a e4bc 1fe8 87bd
00000040: 0f1a 91bd e86c b73c 6092 253c f64e 0a3d
00000050: 96da 5fbd 9c59 a7ba 30ed 13bc 242b 163d
00000060: e1dd 23bd e089 983c 0852 ce3c da7b a13c
00000070: 9b8f 95bb 64c4 a43c 98af 48bc 8b56 ff3a
00000080: fd1d 8ebc 7826 84bd 8e67 51bd b6ed 20bd
00000090: 4cb1 d8bc a86c 183c 37d4 e9bc 10bc 11bd
000000a0: 80a2 093a 53be 0dbd 62ce 1d3d ced7 52bd
000000b0: d0fb bcbc 9c5e 59bd 60b4 fc3b e075 5f3b
000000c0: 60a0 6bbb 0628 483d d851 c3bc c02d 13bc
000000d0: f45d a63a 20a9 553d be0a 423d e0f5 e93b
000000e0: ecac 1dbd 4672 0d3c 4c12 213d aae0 84bc
000000f0: 3939 9f3c d283 1b3d a48c 3fbd 527a d3bc
00000100: 9dbb 91bd b8b4 e83a f7eb f23c c703 c8bc
00000110: 0866 233c f34a a73b 185c 963c c30c 0a3d
00000120: 0038 153c 54a2 7bbd 974a 04bd cca2 7dbd
00000130: 80d2 283b 9d2c 9b3c c818 07bc 4a3b 293d
00000140: 0dfb d5bc 87ca dd3c 7ad8 663d ad82 893c
00000150: a0ac 02bb c895 763d 2023 4fbd 20b5 be3c
00000160: ff6a c93c 325f 5bbd d278 70bd f95b a73b
00000170: f85a 13bd 3230 01bd 67c6 933a aab5 39bd
00000180: 543f 663d 30d7 b7bb 20f8 a3bc a440 253d
00000190: be27 253b 19e3 42bb bb59 79bc 1e03 373d
000001a0: 6cf0 9bbc 5400 183d a08b 96bb 526b 003d
000001b0: e0f7 ee3c b697 3ebd 4b22 60bd 9afd 9cbd
000001c0: 7d55 f73c 63b8 223d ff55 10bd 6e4e 3abd
000001d0: 5868 2b3c 21b1 993c 70c2 7c3c 6869 55bc
000001e0: e5d3 59bd 02fd 1d3d 2060 62bd 6744 97bd
000001f0: 746d ccbc bfde 13bb 9544 093c 40f9 c53c
00000200: ec4c 14bd 1c80 c4bc d3cd 2ebd dcf0 f7bc
00000210: 3a9f 57bd c89c 513c 04e6 94bc cc66 76bd
00000220: 6c6c 52bd 5399 56bd ca91 2abd 5d20 5bbd
00000230: d094 31bc 547b b73c 322f 4fbd 66d7 98bc
00000240: 74bd 4bba a81e 8cbc a060 63bc 6800 d9bc
00000250: 60ad 033b 3635 dfbc 97f0 b6b9 b80a 6b3d
00000260: dc1f 543d 548f e5bc 90ba 8f3b c551 90bd
00000270: 538e 1a3d aad1 9dbd b0c4 64bd 06cb 65bd
00000280: 44bc 6dbd b9fb f93b b863 87bc 8017 753c
00000290: c06f 7dbb 40f9 afba e0f9 b8bc 2ae2 17bd
000002a0: e029 86bd 253b 3d3d 52fe 03bd b5c2 d1bc
000002b0: 5449 8f3c 109b 7dbc cc17 81bc e6ff 5ebd
000002c0: 3f7a 87bd 38be f53c b277 edbc 5cf9 203d
000002d0: 850a 30bc 007c a6b8 f81d 67bd 00dd b43a
000002e0: b06b 67bc 1815 12bd 08fe 6cbc 4022 563b
000002f0: 38e4 40bd 4046 2a3c ee20 323d f91c 1fbb
00000300: cc6a 373d b8eb ee3c e6e4 49bd d087 c9bc
00000310: 186b 76bc 386f 093d 00a6 e9ba 521f 1b3d
00000320: 90e8 ed3b a420 22bd 10b5 bbbc 68fb 54bd
00000330: 6c2c 8dbc 9ee0 813c 8036 1e3a 6a1f 74bd
00000340: c494 15bd 35dc 743c 1eb1 60bd e8d7 80bd
00000350: 8aa1 18bd 90ff 733d 2aa6 05bd 2819 d3bc
00000360: 98b3 69bd d8c3 233d 1058 25bc 1d8a 39bb
00000370: c460 2439 4375 373b 445d e83c 408e 543b
00000380: a5b3 08bc 6727 9abc 6e9d 7dbd 370b ddbc
00000390: 2aa6 733d d46e 35bd 5e90 21bd 4808 7ebd
000003a0: 405f 783b ca32 93bd 281f 03bd 90e3 6b3d
000003b0: e3e3 513c b863 083d 3857 2f3c 4644 8bbd
000003c0: 8e08 34bd fa5c 1cbd a910 59bd d05b ae3c
000003d0: 092f f0bc ec2d 7a3d 1b93 77bd 1479 5abd
000003e0: 42a5 a33d 94af 2bbd a2f2 1c3d 6746 143d
000003f0: e054 69bd 80f8 5e3d 9863 8bbc 9d83 26bd
-0.058725342 -0.057459142 0.029386371 0.047732756 0.0025307983 -0.06059937 -0.061412998 -0.014112964
0.020616425 -0.021103952 0.0168463 -0.047127556 0.035972264 -0.031261455 -0.027905853 -0.066360705
-0.070850484 0.022390798 0.010105699 0.03376671 -0.05465182 -0.0012767795 -0.009028718 0.036662236
-0.040006522 0.018620431 0.0251856 0.019712377 -0.0045642382 0.020113178 -0.012248896 0.0019480748
-0.017348284 -0.0645265 -0.051124148 -0.0392892 -0.02645173 0.009303249 -0.028543575 -0.03557974
0.00052503496 -0.034605335 0.0385269 -0.05147534 -0.023069292 -0.053068742 0.007711932 0.0034097359
-0.0035953745 0.048866294 -0.023842737 -0.008983076 0.0012692795 0.052163243 0.047373526 0.0071399063
-0.03849499 0.008633202 0.03932409 -0.01622041 0.019436466 0.03796751 -0.046764985 -0.025815163
-0.071158625 0.0017754054 0.029653532 -0.024415864 0.009973057 0.00510537 0.01835446 0.033703577
0.00910759 -0.061434105 -0.032297697 -0.061922833 0.0025760233 0.018942172 -0.008245654 0.041316308
-0.026120687 0.027074112 0.056358792 0.016785944 -0.0019939318 0.060201436 -0.050570607 0.023279727
0.024587153 -0.053557582 -0.058708973 0.0051073995 -0.035975426 -0.031540103 0.0011274338 -0.045339264
0.05621274 -0.005610369 -0.020015776 0.04034485 0.002520069 -0.0029737412 -0.015219147 0.044680707
-0.01903554 0.037109688 -0.0045942813 0.03135235 0.02917093 -0.0465314 -0.054720204 -0.07665558
0.030192131 0.039726626 -0.035238262 -0.045484953 0.010461889 0.01876122 0.015427217 -0.013025619
-0.053180594 0.038571365 -0.055267453 -0.073860936 -0.024954535 -0.0022563187 0.008378168 0.024166703
-0.03620617 -0.023986869 -0.042676758 -0.030266218 -0.052642085 0.012793727 -0.018176086 -0.06015663
-0.05137293 -0.052392315 -0.04164294 -0.05349766 -0.010838702 0.022397675 -0.05058212 -0.018657397
-0.0007772066 -0.017104462 -0.013878018 -0.026489452 0.0020092353 -0.027247053 -0.00034892999 0.05738327
0.051788196 -0.028022446 0.0043862537 -0.07046846 0.037733387 -0.07706006 -0.05585164 -0.05610182
-0.058040872 0.0076288846 -0.016527042 0.014959216 -0.0038671345 -0.0013425723 -0.022580087 -0.03708092
-0.06550956 0.046198983 -0.03222496 -0.025605539 0.01749102 -0.015478864 -0.015758418 -0.054443263
-0.066151135 0.02999793 -0.02898774 0.039300308 -0.010744696 -7.9385936e-05 -0.056425065 0.0013798773
-0.014124796 -0.035664648 -0.014464863 0.0032674223 -0.047092646 0.0103927255 0.043488435 -0.0024278744
0.044779584 0.029165134 -0.04929056 -0.024600893 -0.015040182 0.033553332 -0.0017825961 0.037871666
0.0072603896 -0.03958191 -0.022913486 -0.051997572 -0.017233096 0.015854176 0.0006035343 -0.05960027
-0.036518827 0.01494508 -0.054856412 -0.06291181 -0.03726343 0.059569895 -0.03262917 -0.025768831
-0.05705604 0.039981693 -0.0100917965 -0.0028311082 0.00015676307 0.0027993477 0.028364785 0.003243342
-0.008343612 -0.018817617 -0.061917715 -0.026982887 0.05948464 -0.044295147 -0.03944432 -0.062019616
0.003789857 -0.071874216 -0.032012135 0.057590067 0.01281068 0.033298224 0.010701947 -0.068001315
-0.04395347 -0.038174607 -0.052994404 0.021284014 -0.029319303 0.06107895 -0.060443025 -0.053338125
0.07990505 -0.04191549 0.03831733 0.036199953 -0.05696571 0.054436207 -0.017015263 -0.04065286

fc2.bias f4 [64]
00000000: 6d4b 93ba ab7f 08be 3148 27be 3e6e 30bc
00000010: 925b 9f3e 598b 833f e2cb 74bd fe98 81ba
00000020: 9dab ccbd ada0 eb3d 070c dcbc 1f80 a63b
00000030: 29e6 913f 4267 54be abfe bf3e 9c52 403c
00000040: d2e9 58bd 0ec1 78bd 006d 123e 6b30 80bd
00000050: 7a5b c83a 0357 fa3d afb2 b23c b9fb 3f3f
00000060: 44d9 8d3f 2d4b 45bd c2a6 603d 1282 37ba
00000070: e8c5 1a3e 2f9d fa3e ea4e 8cbd 330a 45be
00000080: 26d6 07be e4a4 e13d aeb1 113e 0bb1 043e
00000090: 7413 9a3f 5690 883e 0165 803e f8d7 6ebd
000000a0: 7afa 5abc 6b78 1d3e d51b 84bd a52b a23e
000000b0: af23 ad3d 0afe 1ebe 3bb3 373d 3a32 5cbe
000000c0: fe13 df3b 058b 25bc fa77 46be b3b7 1f3e
000000d0: 40c4 753e 511f a7bb 7034 1bbe 96bf 43bd
000000e0: 9a68 f7bd d90e 23bd 278d 813d b0f0 593f
000000f0: 3454 3a3f 09cf a1bd 92b8 a0be b6e2 c2bc
-0.0011237689 -0.13329951 -0.16336133 -0.010768471 0.3112455 1.02769 -0.05976475 -0.0009887514
-0.0999367 0.11505256 -0.026861204 0.005081191 1.1398364 -0.20742515 0.37498984 0.011738446
-0.052957363 -0.060730986 0.14299393 -0.06259235 0.0015286051 0.122236274 0.021813719 0.74993473
1.1081929 -0.048167396 0.054846533 -0.0007000278 0.15114558 0.48948047 -0.06850989 -0.19242172
-0.13265285 0.110177785 0.14227936 0.12958162 1.2037187 0.2667262 0.2507706 -0.058311433
-0.013365382 0.15377967 -0.06450621 0.31673923 0.08454072 -0.15526596 0.044848662 -0.21503535
0.006807803 -0.010103946 -0.19381705 0.1559742 0.24000645 -0.0051001688 -0.15156722 -0.047790132
-0.12080498 -0.03980908 0.06325751 0.85132885 0.72784734 -0.07900817 -0.31390816 -0.023789745

fc3.weight f4 [4, 64]
00000000: ac77 18bd 61ee efbf f0f8 3fbf f2fe 893d
00000010: d129 12c0 35fb d13f 9493 88bd 0341 87bf
00000020: 6993 fbbe d430 0ebf 530c 66bf 6131 483d
00000030: 4634 9e3f e7e4 9abf d658 83bd 7ef0 b83d
00000040: 4c55 5abf befc e53d 59e2 c33c 198a 86bf
00000050: 3896 9fbf 052e 43bf b22c 1bc0 0e37 983f
00000060: adc1 b93f 5c24 483d cae5 c8bf a185 90bf
00000070: 86b4 5bbf 3da7 15bf bc1f fcbe 0a89 1cbf
00000080: fdd1 45bf aa94 4ebf f9a6 65bf 4adc c2bf
00000090: 60ea 0340 940b c7bf 0f63 48c0 0a96 1e3d
000000a0: f604 58bf a365 efbf d974 32bf 91be 0e3f
000000b0: 1fef ffbf b1af 32bf 57de a9be 3775 a5be
000000c0: 99a8 31bf 140e f0bf 3519 1fbf 7456 c2bf
000000d0: 6f0f 9abf ecab 73bd f293 5abe fb3c 5a3d
000000e0: 5949 7ebf 9947 cc3d a5ab 47bf d915 2140
000000f0: 08f5 4f3f 017d 56bf 4978 e7be 00d8 0b3a
00000100: 4459 eb3d cd55 b9bf 993b 7abf 047f f7bd
00000110: 0259 2bc0 50e4 db3f 4862 91bd 1274 45bf
00000120: f48c 4fbf b0b1 bcbe 30a6 86bf 6a6c 95bc
00000130: 4aaf b93f 5e71 7ebf bbda 0f3f 3ca4 363b
00000140: ed4d 8ebe e914 fabc 38d7 c3bf a6b1 59bf
00000150: 40c6 dcbf 1a96 a0bf 74af 22c0 5348 b23f
00000160: 4484 a13f 8c14 3b3d 35ec d2bf 9983 27bf
00000170: 1a56 4bbf 0162 bebf 325a edbe 6a3c dabf
00000180: 5a33 7abf 2386 f4be 2546 0cbf cbf0 abbf
00000190: e0f3 f73f d4a1 f4bf 9599 babf e86e 7e3d
000001a0: dd31 b7bf 1e42 f0bf 004f 69bf 877d 30bf
000001b0: b290 96bf bc6e a7bf fab5 00bf 002a 98bf
000001c0: b74d 41bf d95f ecbf 223c 78bf 4791 b5bf
000001d0: a424 a0bf 2916 a8bd 9882 46bf d10d 51bc
000001e0: 6ef3 5cbf 601f e23d f5e4 41bf 5b77 1140
000001f0: 77a8 503f 90e2 68bf 3aee 49bf c7c2 d0bd
00000200: 8bc1 57bd 1648 0ec0 cd34 7dbf 49df a43d
00000210: f89c 21c0 fdc6 d63f c03c 693b 875b afbf
00000220: 2637 cabe ff3d 71be 10b3 69bf f20b 69bd
00000230: a5b1 633f 49c4 7bbf a318 d1bf aa61 0cbd
00000240: 5358 3dbf d988 783d d2c8 1dc0 ac05 36bf
00000250: 798b 3fbf 646a 8abf 54af 88bf f065 eb3f
00000260: 4567 ae3f 14d4 7dbd f200 05c0 58da 55bf
00000270: 1b45 9dbf 02a6 7abf bbf9 05bf 5a0f 03c0
00000280: d6a6 22bf 448f 0fbf f051 32bf 7c68 bebc
00000290: caef f33f 825c 4cbf ef3e 17c0 024a e23d
000002a0: 951e 12bf de96 c7bf 8ba1 79bf ba59 65bf
000002b0: 97a1 d9bf bcdb b7bf 4222 08bf ebe9 e3be
000002c0: 692b 3bbf 44c5 3bbf de67 7cbf 1ee8 06c0
000002d0: 4e72 d9bf 20eb bd3d f03c 68bf 7d9d 42bc
000002e0: e718 12bf 8868 e6bd b3c0 03bf 3d79 0440
000002f0: 7cc1 a53f 48f4 50bf 07de 87bf 965e c9bd
00000300: 4088 3f3d 1945 aebf 80da 2ebf 17b9 93bd
00000310: 22d8 06c0 b2c3 bc3f e4e1 da3d ba51 0dbf
00000320: 5d6b 43bf d54d 73bf 6985 c2be 95ab 693c
00000330: d7ba 6f3f 6f41 98be 82c7 2abe da8f 8c3c
00000340: 6e6f 86bf 2cd7 e63d f566 bfbf 94fa 29bf
00000350: cc0c e2bf aa99 68bf dbbe ddbf 25a1 983f
00000360: 32ac 813f 638a b03d 4ed5 1bc0 db53 62bf
00000370: cb37 afbf f364 4cbe a9bf bdbf ccbb 22bf
00000380: 097e 3dbf 20ef 6dbf 57e7 62bf 94c3 d1be
00000390: 1652 0040 8abc 8bbf 93b9 ebbf 6be4 73bd
000003a0: e16a a8bf 0e63 efbf ae47 93bf 7077 183f
000003b0: 8ae5 b3bf 0578 22bf 0c12 a8bf 4a65 fcbc
000003c0: e2d4 8bbf a18c e5bf 0fc5 04bf b630 aebf
000003d0: 5a69 f9bf 4e78 dd3c 6320 5abf 853a 3c3d
000003e0: 374b 1bbf 5784 dbbd 37b6 24bf 67ca 2440
000003f0: ff73 e63f 00bd 52bf bda2 a6bf a4a4 48bd
-0.037223503 -1.8744622 -0.74989223 0.0673808 -2.2838023 1.6404787 -0.06668773 -1.0566715
-0.49135903 -0.55543256 -0.89862555 0.048875216 1.2359703 -1.2101105 -0.064134285 0.09030245
-0.852864 0.11229847 0.023911642 -1.0510894 -1.2467718 -0.76242095 -2.424603 1.1891801
1.451223 0.0488628 -1.5695126 -1.129078 -0.8582233 -0.5845831 -0.4924296 -0.61146605
-0.7727354 -0.80695593 -0.89707905 -1.5223477 2.06118 -1.5550408 -3.131046 0.038717307
-0.8438257 -1.8702892 -0.69709545 0.5575953 -1.9994849 -0.69799334 -0.33177444 -0.3231599
-0.69397885 -1.8754296 -0.6214784 -1.5182633 -1.203596 -0.05949013 -0.21345499 0.05328081
-0.9933067 0.09974594 -0.77996284 2.5169585 0.81233263 -0.8378449 -0.45208958 0.00053346157
0.114916354 -1.4479309 -0.9774719 -0.12084773 -2.6773076 1.717905 -0.07098824 -0.77130234
-0.8107445 -0.36854315 -1.0519466 -0.018240172 1.4506619 -0.99391735 0.5619313 0.0027868887
-0.27793828 -0.030527549 -1.5300055 -0.85036695 -1.7248001 -1.2545807 -2.5419588 1.3928322
1.2618489 0.045673892 -1.6478335 -0.6543518 -0.79428256 -1.4873658 -0.46357876 -1.7049687
-0.97734606 -0.47758588 -0.5479453 -1.3432859 1.93713 -1.9111886 -1.457812 0.062117487
-1.4312092 -1.8770177 -0.9113617 -0.6894154 -1.1762908 -1.3080668 -0.50277674 -1.1887817
-0.7550921 -1.846675 -0.96966755 -1.418496 -1.2511182 -0.08207352 -0.7754302 -0.012759642
-0.86308944 0.110411406 -0.75739986 2.2729099 0.81507057 -0.90970707 -0.7887913 -0.10193401
-0.05267481 -2.2231498 -0.9890869 0.08050401 -2.5252056 1.6779476 0.0035589188 -1.3699807
-0.394952 -0.23558806 -0.9128885 -0.056896158 0.8894294 -0.9834638 -1.6335644 -0.034272827
-0.739629 0.060677383 -2.465382 -0.71102405 -0.74822193 -1.0813718 -1.0678506 1.8390484
1.3625265 -0.06196983 -2.0781827 -0.8353629 -1.2286714 -0.9790956 -0.52334183 -2.047812
-0.6353582 -0.5607798 -0.69656277 -0.023243181 1.9057553 -0.79828656 -2.3632162 0.11049272
-0.57077914 -1.5592916 -0.9751212 -0.89590037 -1.7002438 -1.4363933 -0.53177273 -0.44514403
-0.73113114 -0.7334788 -0.9859599 -2.1079173 -1.6988008 0.09273362 -0.90717983 -0.011878368
-0.5706925 -0.112504065 -0.5146591 2.0698998 1.2949672 -0.81622744 -1.0614632 -0.09832494
0.046760798 -1.3614837 -0.68302155 -0.072130375 -2.1069417 1.4747221 0.106876165 -0.5520283
-0.763357 -0.9504064 -0.3799241 0.0142621 0.9364447 -0.29737422 -0.16677669 0.017158438
-1.0502756 0.112715095 -1.4953295 -0.66397977 -1.7660155 -0.9085947 -1.732387 1.1924177
1.0130675 0.08620145 -2.434894 -0.88409203 -1.3688902 -0.19960384 -1.4824115 -0.63567805
-0.7402044 -0.92943 -0.88634247 -0.40969527 2.0050101 -1.0916913 -1.8416008 -0.05954401
-1.3157617 -1.8702104 -1.150625 0.5955725 -1.4054425 -0.63464385 -1.3130507 -0.030810017
-1.0924342 -1.7933542 -0.5186319 -1.3608615 -1.9485276 0.027034905 -0.8520567 0.045954246
-0.60661644 -0.10718601 -0.6434054 2.5748537 1.8004149 -0.8231964 -1.3018414 -0.04898514

fc3.bias f4 [4]
00000000: 0369 753e 2bf9 ec3e 4cdb da3e 17be fdbd
0.2396584 0.4628385 0.42745435 -0.123897724
