pettingzoo/pettingzoo/sisl/checkpoint.pth (torch, 82287 bytes, 6 tensors)

fc1.weight f4 [256, 12]
0	0x3f8c1fae	1.0947168
1	0xbfdbd875	-1.7175432
2	0xc0143958	-2.316
3	0xbf3631a5	-0.711695
4	0x3f506a3d	0.81412107
5	0x3db7c270	0.08972633
6	0xbdb1efd8	-0.08688325
7	0x3ee573bf	0.4481487
8	0x3b2483b9	0.0025102927
9	0x3eec42da	0.46144754
10	0xbe6f0a6c	-0.2334382
11	0xbd2f400a	-0.04278568
12	0x3e824ecd	0.25450745
13	0xc0476d14	-3.1160326
14	0x3e83714d	0.2567238
15	0xbf2e6578	-0.6812358
16	0x3f2113db	0.6292092
17	0x3e10a28a	0.14124504
18	0x3bb1cd72	0.0054261023
19	0x3e3b7b7f	0.18308829
20	0xbf860677	-1.0470723
21	0x3f56e61d	0.83944875
22	0xbe9a7559	-0.30167654
23	0xbe4b0b78	-0.19828594
24	0xbeba4c3b	-0.36386284
25	0xbf429540	-0.7600899
26	0x3fa1caf8	1.2640066
27	0xbf470e2e	-0.7775601
28	0x3f1a4318	0.60258627
29	0xbf3dbf12	-0.74119675
30	0xbf6146e5	-0.879988
31	0xbf5e8041	-0.8691445
32	0x3eb9bf74	0.3627888
33	0x3e061cd8	0.1309694
34	0xbe28376c	-0.16427392
35	0xbbd204b8	-0.006409254
36	0xbde298d8	-0.11064309
37	0x3e2d5624	0.16927391
38	0x3f7e1fdd	0.9926737
39	0x3f318e04	0.69357324
40	0xc01fc56f	-2.4964254
41	0x3d92553b	0.07145163
42	0x3e20f6a4	0.15719086
43	0xbfbb4a17	-1.4631985
44	0xbdbea70f	-0.09309208
45	0x3e0dcfc5	0.13848789
46	0x3ee9e056	0.45678967
47	0x3e341deb	0.17589538
48	0x3d0fd0ab	0.03511111
49	0xbe4f815e	-0.20264193
50	0xbde1f695	-0.1103336
51	0xbfa85f10	-1.3154011
52	0x3d0bff7a	0.03417919
53	0x3ef91cf4	0.48654902
54	0x3f871bec	1.0555396
55	0xbeb7a25a	-0.35866052
56	0x3e3d1d16	0.18468127
57	0x3f56b939	0.8387638
58	0xbf849570	-1.0358105
59	0xbead72da	-0.33876687
60	0xbeaf57a2	-0.34246546
61	0x3e1a8e6e	0.15093395
62	0xbc45e753	-0.012079078
63	0xbf0f4fd8	-0.55981207
64	0xbdf007ea	-0.117202595
65	0x3cb35ce9	0.021894889
66	0x3e40ed21	0.18840457
67	0x3e156974	0.14591008
68	0xbe191a3f	-0.14951418
69	0x3f2bba70	0.67081356
70	0xbfae2ecf	-1.3608035
71	0xbf4084e3	-0.7520277
72	0xbe6110d2	-0.21979073
73	0x3f183b19	0.59465176
74	0x3f56e2ec	0.83940005
75	0x3ed32f56	0.41247052
76	0x3f844809	1.0334483
77	0xbfd7a7b6	-1.6848056
78	0xbf597408	-0.84942675
79	0xbfb13e79	-1.384719
80	0x3dbc1c7a	0.09185119
81	0x3f022075	0.50830775
82	0xbe27d4b2	-0.1638973
83	0xbf324cb3	-0.69648284
84	0xbe869045	-0.26281944
85	0xbeab7762	-0.3348952
86	0x3f38c938	0.72182035
87	0xbe588df3	-0.211479
88	0xbee74d51	-0.45176175
89	0xbf5c5cc2	-0.8607904
90	0xbf82f531	-1.0231076
91	0xbea44b75	-0.3208882
92	0x3ee69337	0.4503419
93	0x3fa2d3cc	1.2720885
94	0xbe836506	-0.25663012
95	0x3e26f27e	0.16303441
96	0xbdb82e11	-0.089931615
97	0x3dd6c4c6	0.1048675
98	0xbe2844c1	-0.16432478
99	0xbe52b092	-0.20575169
100	0xbdb48dc3	-0.088161014
101	0xbe731269	-0.23737492
102	0xbd579582	-0.052632816
103	0xc00aec0a	-2.1706567
104	0x3f76a483	0.96344775
105	0xbf33213a	-0.69972575
106	0xbf4a3556	-0.78987634
107	0xbe782ccd	-0.2423584
108	0x3e9b7e7b	0.30369934
109	0x3e545993	0.20737295
110	0x3fcdeb35	1.6087404
111	0x3f86f16d	1.0542427
112	0xbfb97bf6	-1.4490955
113	0x3fa3939a	1.277942
114	0x3f3aeed7	0.7302069
115	0xbd763d0e	-0.06011682
116	0x3db476f2	0.088117495
117	0x3f455628	0.7708459
118	0x3d9032d4	0.07040945
119	0xbd888711	-0.06666387
120	0x3f8a04c3	1.0782703
121	0xbee57faa	-0.44823962
122	0x3f8bc97a	1.0920861
123	0x3e445732	0.19173887
124	0xbea24fae	-0.31701416
125	0x3e4fb99b	0.20285647
126	0x3ed95a60	0.42451763
127	0x3cb0d820	0.021587431
128	0xbf95870d	-1.1681839
129	0xbee29ad1	-0.4425874
130	0x3eec8514	0.4619528
131	0x3f1ac50b	0.60456914
132	0xbe37734e	-0.17915079
133	0xc050be85	-3.2616284
134	0x3eed04a6	0.4629261
135	0xbc5d061a	-0.013490224
136	0x3d1a7590	0.037709773
137	0x3e9a71c6	0.30164927
138	0x3e11a6d1	0.14223792
139	0x3e2ef159	0.17084254
140	0x3f0afd52	0.54292786
141	0x3f248824	0.64270234
142	0x3f2ac3dd	0.66705114
143	0xbd3cd525	-0.046101708
144	0xbf22466e	-0.6338872
145	0xbe5a9c00	-0.21348572
146	0x3d8e7e99	0.0695774
147	0xbf2a9664	-0.6663573
148	0xc01c049a	-2.4377809
149	0xbf043b0e	-0.5165261
150	0xbfff7660	-1.9958
151	0x3e09a6f5	0.13442595
152	0x3dcbcce8	0.09951192
153	0x3df8d712	0.121503964
154	0x3ee7276a	0.45147258
155	0xbf8e964d	-1.1139618
156	0x3e8b3965	0.27192226
157	0xbd5faec1	-0.054610018
158	0xbf1bc2dc	-0.60844207
159	0xbf912120	-1.1338234
160	0x3e418680	0.18898964
161	0xbe5bdd76	-0.214712
162	0xbfc74530	-1.5567989
163	0xbc5ccf0e	-0.0134771
164	0xc000484b	-2.0044124
165	0xbf9a3cad	-1.2049767
166	0x3df49aae	0.11943565
167	0xbe1be3f7	-0.1522368
168	0x3de611e8	0.11233884
169	0xbf05fd53	-0.5233967
170	0x3f6b5416	0.9192518
171	0x3d408584	0.04700233
172	0x3d148587	0.036260154
173	0x3f6a33b0	0.9148512
174	0xbe8de094	-0.27710402
175	0xbf5404f6	-0.8282007
176	0x3e9bf51c	0.3046044
177	0x3f93fe6b	1.1562017
178	0x3f3c03cf	0.7344331
179	0xbf106272	-0.56400216
180	0x3f6e3282	0.9304582
181	0xbf02da77	-0.511146
182	0xbe2ee7ee	-0.17080662
183	0xbf6d0a38	-0.9259372
184	0x3f134d52	0.57539856
185	0x3d6f3b06	0.0584059
186	0xbdb9f9e8	-0.09080869
187	0xbf84c4ee	-1.0372598
188	0xbfa58276	-1.2930439
189	0xbeb7d713	-0.35906276
190	0x3f216cc3	0.6305658
191	0xbee627f0	-0.44952345
192	0x3ddd0b52	0.10793175
193	0xc00b5778	-2.1772137
194	0xc0550905	-3.3286755
195	0x3fcb8b02	1.5901797
196	0x3e8afd19	0.27146223
197	0xbe554c12	-0.208298
198	0x3e043d48	0.12914002
199	0x3eaf7185	0.34266296
200	0xbe142681	-0.14467813
201	0x3dc6a7f1	0.09700001
202	0x3f00349d	0.5008028
203	0xbf90b105	-1.1304022
204	0x3f4cbfba	0.7998005
205	0xbf958dcb	-1.1683897
206	0x3dd4f130	0.10397565
207	0x3fa76d4b	1.3080229
208	0xbebb9e4c	-0.36644208
209	0xbf2d9149	-0.6779981
210	0x3e55a33f	0.20863055
211	0x3f13a092	0.57666886
212	0x3f290a26	0.6603111
213	0x3ee69ace	0.45039982
214	0xbf37f489	-0.71857506
215	0x3fd5122c	1.6646171
216	0xbf4ba990	-0.79555607
217	0xbe96e194	-0.29468977
218	0xbee0a366	-0.43874663
219	0xc031acda	-2.776175
220	0x3ee79ee8	0.45238423
221	0x3e63a70f	0.22231697
222	0x3ed5d2b0	0.41762304
223	0xbe240c3a	-0.16020289
224	0x3df463ec	0.11933121
225	0x3feabc7c	1.8338771
226	0xbee46566	-0.4460861
227	0xbdc80d23	-0.09768131
228	0xbe3b66cc	-0.18300933
229	0xbf15c10f	-0.5849771
230	0x3f098c81	0.53730017
231	0xbf21f7d9	-0.6326881
232	0x3e9b47f8	0.30328345
233	0x3e8f2a27	0.27961847
234	0x3eabb424	0.33535874
235	0xbe6a3997	-0.22873531
236	0x3e73de82	0.23815349
237	0x3e64fa73	0.22361164
238	0x3eb3513e	0.3502292
239	0xbd8705a2	-0.06592871
240	0xbd320a74	-0.043467
241	0xbf40f586	-0.7537464
242	0x3d97b3c9	0.07407338
243	0x3f2855fe	0.65756214
244	0xbf28a749	-0.65880257
245	0xbf142c25	-0.5787986
246	0x3e928f0d	0.28624764
247	0x3d42d7ad	0.047568966
248	0xbc1f42df	-0.009720533
249	0x3fba4375	1.4551836
250	0xbde436f6	-0.111432955
251	0xbde0fb8c	-0.10985479
252	0xbe5bec54	-0.21476871
253	0x3f03f072	0.51538765
254	0xbfe065e0	-1.753109
255	0x3ec10548	0.37699342

fc1.bias f4 [256]
0	0x3e4efe9b	0.20214312
1	0x3f1f0d15	0.62129337
2	0xbf0218e5	-0.50819236
3	0x3d85195e	0.06498979
4	0x3c8303d2	0.015993033
5	0x3e0eb604	0.13936621
6	0x3e9068a5	0.28204837
7	0xbea01f93	-0.3127409
8	0x3e56be31	0.2097099
9	0x3e75f9ce	0.24021074
10	0x3ece7d67	0.4033005
11	0x3f85f6d8	1.0465956
12	0x3e0bccc7	0.13652335
13	0x3e0cf904	0.13766867
14	0x3df86b79	0.12129874
15	0xbf1276eb	-0.57212704
16	0xbef57cf0	-0.47946882
17	0x3ebc39a9	0.3676274
18	0x3df7b1e1	0.120944746
19	0x3eaf6744	0.34258473
20	0x3f5dddf5	0.86666805
21	0x3f077f90	0.5292902
22	0xbfd1a751	-1.6379186
23	0xbdec2e1c	-0.11532232
24	0xbf95123c	-1.164619
25	0x3ed5834e	0.4170174
26	0x3ece4478	0.40286613
27	0x3f529296	0.8225492
28	0xbd2b7b48	-0.041865617
29	0x3e3f8f02	0.18706897
30	0x3ecf7510	0.40519
31	0xbf02fb44	-0.5116465
32	0x3ea76bf8	0.3269956
33	0xbe1fc54f	-0.15602611
34	0xbf899f5a	-1.0751755
35	0x3f3a21cf	0.7270784
36	0x3e8087ca	0.251036
37	0x3f21f36e	0.6326207
38	0xbeb8a7fc	-0.36065662
39	0xbf421abb	-0.7582204
40	0xbdaf0e8e	-0.08547698
41	0xbecbc32c	-0.39797342
42	0xbe8f09c4	-0.27937138
43	0xbdf9c57f	-0.121958725
44	0xbe0e8671	-0.13918473
45	0xbe601c4a	-0.21885791
46	0x3e68aa4c	0.22721213
47	0x3e01b2c9	0.12665857
48	0xbe8be228	-0.2732098
49	0x3eff71e7	0.49891588
50	0xbf75b205	-0.9597476
51	0x3f22ab91	0.6354304
52	0xbea2ad21	-0.31772712
53	0xbe9754f3	-0.29557
54	0x3f1ea12a	0.61964667
55	0xbe1416bd	-0.14461799
56	0x3eb2dd7f	0.34934613
57	0xbea6b021	-0.3255625
58	0xbf24d76e	-0.6439122
59	0xbc3ead07	-0.011637933
60	0xbe040a16	-0.12894472
61	0x3f32c619	0.69833523
62	0x3edbe75f	0.4294996
63	0x3ecb027a	0.39650327
64	0x3f1f23e2	0.6216413
65	0x3d942499	0.07233543
66	0xbd6f6755	-0.058448154
67	0x3ec469ef	0.3836207
68	0xbe0a7cee	-0.1352422
69	0x3faa00d5	1.3281504
70	0x3ed64a5c	0.41853607
71	0xbe5fee46	-0.21868238
72	0xbec4016b	-0.38282332
73	0xbf10a6da	-0.56504595
74	0x3d61dd0b	0.055142444
75	0xbf519a39	-0.8187595
76	0xbe598cb9	-0.21245088
77	0xbed7d4b6	-0.42154473
78	0xbcf0e4b1	-0.029405924
79	0xbf1b6def	-0.6071462
80	0xbf21b209	-0.63162285
81	0xbf402f55	-0.7507222
82	0xbf0037ee	-0.5008534
83	0xbe2c9bb1	-0.16856267
84	0x3f6d739c	0.9275453
85	0x3f359d4d	0.70943147
86	0xbd0b98aa	-0.03408114
87	0x3f0f0430	0.55865765
88	0xbea6ae8d	-0.32555047
89	0x3de51878	0.11186308
90	0xbe8b655a	-0.27225763
91	0xba1f159b	-0.0006068588
92	0x3f9227a4	1.1418347
93	0x3f0381ea	0.5137011
94	0x3eaa9078	0.33313346
95	0x3e31848e	0.17335722
96	0xbf237477	-0.63849586
97	0xbe9d17b8	-0.30682158
98	0x3e1a5085	0.15069778
99	0x3f074eba	0.528545
100	0x3e4aaa9f	0.1979165
101	0xbf960aa0	-1.1721992
102	0x3e2e198c	0.17001933
103	0xbe359d7b	-0.17735855
104	0x3f693ef5	0.9111169
105	0x3e21cd6c	0.15801018
106	0xbef7f0d0	-0.48425913
107	0xbeba142f	-0.36343524
108	0xbf80b66a	-1.0055668
109	0x3f40adf9	0.7526546
110	0x3b532c48	0.0032222439
111	0x3f0f0796	0.5587095
112	0xbe917630	-0.28410482
113	0x3ee63db0	0.4496894
114	0xbe8dc129	-0.27686432
115	0xbf865dc2	-1.0497363
116	0xbd81303a	-0.063080266
117	0xbf3c065b	-0.734472
118	0xbee9a65a	-0.4563473
119	0x3ed2f0e4	0.4119941
120	0xbdd02681	-0.10163594
121	0xbdb0d93e	-0.08635186
122	0x3f119f5e	0.568838
123	0x3f5486d0	0.8301821
124	0x3ed82344	0.42214406
125	0x3e622057	0.22082649
126	0xbdbd4e13	-0.09243407
127	0xbf1cffd4	-0.6132786
128	0xbe725534	-0.23665315
129	0x3d3e04fe	0.04639148
130	0x3efd2fb5	0.4945046
131	0x3b94ddf9	0.0045430628
132	0xbeb71105	-0.35755172
133	0xbf528590	-0.8223505
134	0x3e602485	0.21888931
135	0x3ea41449	0.32046726
136	0x3e0dbc9f	0.13841484
137	0xbf4b90c8	-0.79517794
138	0x3e958185	0.29200378
139	0x3f71470c	0.94249034
140	0xbf6b3696	-0.91880167
141	0xbed5fe12	-0.41795403
142	0x3d2df65a	0.042471267
143	0xbe16a72d	-0.1471221
144	0x3ebe6529	0.37186554
145	0x3ee1cb3c	0.44100368
146	0x3dc2fb07	0.09520536
147	0x3f337f84	0.7011645
148	0xbea82ad6	-0.3284518
149	0x3f1f9978	0.6234355
150	0x3f5afa2c	0.8553798
151	0xbd23f788	-0.040030986
152	0x3f095ca0	0.5365696
153	0xbe7e5d2e	-0.24840233
154	0x3dd866eb	0.10566505
155	0xbed53a0a	-0.41645843
156	0x3f9d45fc	1.2286983
157	0xbe90324d	-0.28163376
158	0x3e575cc5	0.21031483
159	0xbeec6bf2	-0.46176106
160	0x3f12a138	0.5727725
161	0xbfc0d72b	-1.5065664
162	0xbecac4fd	-0.39603415
163	0xbe8c4df8	-0.27403235
164	0x3ef59446	0.47964686
165	0x3f149bfd	0.5805052
166	0xbc930b60	-0.01794976
167	0xbe845062	-0.25842577
168	0x3efc3483	0.49258813
169	0xbe8a3c65	-0.26999202
170	0xbec04e2a	-0.37559634
171	0x3efd85d6	0.4951617
172	0x3ea080f3	0.3134838
173	0x3ecca1bb	0.3996714
174	0xbc53a03a	-0.012916619
175	0x3eb42507	0.351845
176	0x3e0a77f9	0.13522328
177	0xbe219cfa	-0.15782538
178	0x3f5f1486	0.8714069
179	0x3d933d6b	0.07189449
180	0xbee5a72f	-0.44854113
181	0xbfbe0262	-1.4844477
182	0x3f352015	0.7075208
183	0xbe1eda64	-0.15512997
184	0xbe1bca4a	-0.15213886
185	0xbeb4c022	-0.35302836
186	0xbf1eb223	-0.61990565
187	0xbf112744	-0.5670054
188	0x3f355c15	0.7084363
189	0x3ab86a6c	0.0014069802
190	0xbe687755	-0.22701772
191	0x3ee28806	0.44244403
192	0x3f47eb22	0.7809316
193	0xbe156e0e	-0.14592764
194	0xbeee3c7d	-0.46530524
195	0xbf755eaa	-0.9584757
196	0xbea15c5a	-0.3151577
197	0x3cd84cfc	0.026403897
198	0xbcc7a7f2	-0.024372075
199	0x3f6c83ad	0.9238842
200	0xbe16df98	-0.14733732
201	0x3ecb6df4	0.39732325
202	0xbf796d98	-0.9743285
203	0xbf656c26	-0.89618146
204	0x3e3998a5	0.18124636
205	0xbe91ed39	-0.285013
206	0xbee9d4ab	-0.45670065
207	0x3f0e5877	0.55603737
208	0x3e568250	0.20948148
209	0x3f89caaf	1.0764979
210	0xbe135676	-0.14388451
211	0x3e8a4477	0.2700536
212	0xbdeb1ab2	-0.11479701
213	0x3e882a23	0.26594648
214	0xbce03a24	-0.027371474
215	0xbf3f93b0	-0.7483473
216	0x3ed7372e	0.42034286
217	0x3f039217	0.5139479
218	0x3f2c6880	0.67346954
219	0x3f299747	0.66246456
220	0xbf2537fc	-0.6453855
221	0xbe94f45d	-0.29092684
222	0x3ea8e7f9	0.3298948
223	0x3f0a9c07	0.5414433
224	0xbf894924	-1.0725446
225	0x3e3ba123	0.18323188
226	0xbf05250d	-0.5200966
227	0x3f4ba0ef	0.7954244
228	0x3e486947	0.1957141
229	0x3cca01e7	0.02465911
230	0xbd099b73	-0.033595514
231	0xbebeade0	-0.3724203
232	0xbdd9fdcf	-0.10644113
233	0x3ea051b5	0.31312338
234	0x3ed0283c	0.40655696
235	0x3ed77349	0.42080143
236	0x3f39ecd1	0.7262698
237	0x3f61610e	0.8803872
238	0x3ee40b7d	0.44540015
239	0x3e287477	0.16450678
240	0x3f1e2d05	0.61787444
241	0x3f49ddc3	0.78854007
242	0x3d4c7c0d	0.04992299
243	0xbf258142	-0.64650357
244	0x3f3fdc00	0.7494507
245	0x3f356ee4	0.7087233
246	0x3f126276	0.5718149
247	0xbefc15a7	-0.4923527
248	0xbe5ed633	-0.21761398
249	0x3e776002	0.24157718
250	0x3ec8b8e6	0.39203566
251	0x3e6bcded	0.23027773
252	0xbf32aaf9	-0.69792134
253	0xbf0c157c	-0.5472028
254	0x3f0015ea	0.5003344
255	0xbec977c6	-0.39349192

fc2.weight f4 [64, 256]
0	0xbd7eab6f	-0.06217521
1	0xbd35ae18	-0.044355482
2	0x3c5d4bfc	0.013506886
3	0x3d027962	0.03185404
4	0x3b25dbc0	0.0025307983
5	0xbd78370c	-0.06059937
6	0xbd9e4b4c	-0.077292055
7	0xbcf5b2a1	-0.029992403
8	0x3d0a3198	0.033738703
9	0xbd2a98e0	-0.0416497
10	0x3c8a0140	0.0168463
11	0xbd4cf6ca	-0.050040044
12	0x3d0f3e30	0.034971416
13	0xbc8628f0	-0.016376942
14	0xbcecc8cf	-0.028904347
15	0xbd608858	-0.054817528
16	0xbd654c0c	-0.055980727
17	0xbc3ef5fb	-0.011655326
18	0xbbbc4583	-0.005745591
19	0x3d0a4ef6	0.03376671
20	0xbd9072b7	-0.0705313
21	0x3c336d08	0.010951288
22	0xbc13ed30	-0.009028718
23	0x3caa409a	0.020782758
24	0xbce8cde8	-0.028418496
25	0x3b33a131	0.002740931
26	0x3cce5208	0.0251856
27	0x3c7e3997	0.01551666
28	0xbcaf9c48	-0.021436825
29	0x3b8ac3de	0.004234775
30	0xbc48af98	-0.012248896
31	0x3c89defc	0.01682996
32	0xbd1d6a4a	-0.038431443
33	0xbd863975	-0.06553928
34	0xbd51678e	-0.051124148
35	0xbd61f880	-0.05516863
36	0xbd2d6360	-0.0423311
37	0xbbd77d88	-0.006576244
38	0xbc5ffca8	-0.013671078
39	0xbd11bc10	-0.03557974
40	0x3a09a280	0.00052503496
41	0xbd11e2eb	-0.035616796
42	0x3d1dce62	0.0385269
43	0xbd89f12e	-0.067354545
44	0xbd1f8872	-0.038948484
45	0xbd248398	-0.04016456
46	0xbc05d133	-0.008167553
47	0xbc4c4d00	-0.01246953
48	0xbc9f89c7	-0.019474877
49	0x3d3cf625	0.04613318
50	0xbcc351d8	-0.023842737
51	0xbccbac7e	-0.024862524
52	0x398c6e3d	0.00026785015
53	0x3d55a920	0.052163243
54	0x3d010006	0.031494163
55	0x3be9f5e0	0.0071399063
56	0xbd21e428	-0.039524227
57	0x3ca83394	0.020532407
58	0x3d21124c	0.03932409
59	0xbc8d02f6	-0.017213326
60	0x3d0c8d78	0.034314603
61	0x3d10792f	0.03527182
62	0xbd4a32df	-0.04936492
63	0xbcf34673	-0.029696679
64	0xbd93bf4f	-0.072142236
65	0x3c6b1008	0.014347084
66	0x3cead095	0.028663913
67	0xbce5819a	-0.0280159
68	0xbbc187c1	-0.0059060757
69	0x3b861118	0.004091393
70	0xbc8d0147	-0.017212523
71	0x3d05fb8d	0.0327106
72	0x3c153800	0.00910759
73	0xbd9e5698	-0.0773136
74	0xbd5366b8	-0.051611632
75	0xbd7da2cc	-0.061922833
76	0xbc59f4a7	-0.013302959
77	0x3d0a62a8	0.033785492
78	0xbcc5a20f	-0.024125127
79	0x3d25216c	0.040315077
80	0xbcde31b4	-0.02712331
81	0x3c515b70	0.012778148
82	0x3d66d87a	0.056358792
83	0x3d018f3c	0.03163074
84	0xbc926b2a	-0.017873365
85	0x3d358aef	0.04432195
86	0xbd59fe42	-0.053220995
87	0x3cbeb520	0.023279727
88	0x3d21ac68	0.03947106
89	0xbd1e8358	-0.038699478
90	0xbd7078d2	-0.058708973
91	0x3b86bcf1	0.004111879
92	0xbd222a46	-0.039591096
93	0xbd423b0a	-0.047419585
94	0x3c4badd8	0.012431584
95	0xbd7ac063	-0.06121863
96	0x3d2534f4	0.040333703
97	0xbcb00b81	-0.02148986
98	0xbca3f820	-0.020015776
99	0x3d5602de	0.052248828
100	0x3ac7a2a3	0.0015230965
101	0x3c431848	0.011907645
102	0xbd3b719c	-0.045762643
103	0x3d73fcb4	0.05956717
104	0xbd0f030d	-0.03491502
105	0x3d13e1a2	0.036103852
106	0xbca7b840	-0.0204736
107	0x3c7d81e9	0.0154728675
108	0x3ce5ea23	0.028065747
109	0xbd7fa294	-0.062410906
110	0xbd2a9ff4	-0.04165645
111	0xbd9f1824	-0.07768276
112	0x3d38a4aa	0.04507891
113	0x3d1b1e0d	0.037870456
114	0xbd1e9a26	-0.038721226
115	0xbcfac458	-0.030611202
116	0xbbb185e3	-0.005417572
117	0x3c9190da	0.017769266
118	0xb9ecd437	-0.0004517154
119	0xbc556968	-0.013025619
120	0xbd63e058	-0.055633873
121	0x3d19e801	0.03757477
122	0xbd66d4b3	-0.05635519
123	0xbd775f60	-0.06039369
124	0xbd274192	-0.040834017
125	0xbb5fe6f4	-0.0034164758
126	0x3cbe4e44	0.02323068
127	0x3cc5f940	0.024166703
128	0xbd5557c2	-0.052085645
129	0xbd234a93	-0.03986604
130	0xbd32e14a	-0.043671884
131	0xbd3d0331	-0.04614562
132	0xbd8c53f3	-0.068519495
133	0x3c519cc8	0.012793727
134	0xbd0b7c01	-0.034053806
135	0xbd7666cc	-0.06015663
136	0xbd157b9a	-0.03649483
137	0xbd5ac83a	-0.053413607
138	0xbd2f78a7	-0.042839672
139	0xbd5f39bb	-0.054498415
140	0xbcdae017	-0.026718182
141	0x3cb77b54	0.022397675
142	0xbd4f2f32	-0.05058212
143	0xbcadf19a	-0.021233369
144	0xbc93592c	-0.017986856
145	0xbd43eca2	-0.047833093
146	0xbcf3c5f5	-0.02975748
147	0xbd2d8b02	-0.042368896
148	0x3b03ad60	0.0020092353
149	0xbd38cb2a	-0.045115627
150	0xbb83e6a6	-0.004025298
151	0x3d6b0ab8	0.05738327
152	0x3d13150d	0.035908747
153	0xbce58f54	-0.028022446
154	0x3b5e1de8	0.0033892337
155	0xbd998182	-0.07495405
156	0x3d167ebc	0.036741957
157	0xbda014dc	-0.078164786
158	0xbd64c4b0	-0.05585164
159	0xbd936aed	-0.07198129
160	0xbd976257	-0.07391804
161	0x3c0aae20	0.008464366
162	0xbd04bcab	-0.03240649
163	0xba7133a9	-0.00092011184
164	0xbca1c2cc	-0.019746207
165	0xbaaff940	-0.0013425723
166	0xbd1d86e7	-0.03845873
167	0xbd17e22a	-0.03708092
168	0xbd8bb0a0	-0.06820798
169	0x3c80c1f5	0.015717486
170	0xbd03fe52	-0.03222496
171	0xbc504288	-0.012711175
172	0x3c6d2e82	0.01447642
173	0xbd007198	-0.03135833
174	0xbc8117cc	-0.015758418
175	0xbd2aa948	-0.041665345
176	0xbd8e09c1	-0.06935454
177	0x3c6750f7	0.014118425
178	0xbc670870	-0.014101133
179	0x3d20f95c	0.039300308
180	0xbc40c4ed	-0.011765701
181	0xb8a67c00	-7.9385936e-05
182	0xbd941464	-0.07230452
183	0xbc6d8f4a	-0.014499495
184	0xbcf5cb83	-0.030004269
185	0xbd121518	-0.035664648
186	0xbc6cfe08	-0.014464863
187	0xbc4ea2e1	-0.012612076
188	0xbd80f789	-0.062972136
189	0xbbb3bce0	-0.005485162
190	0x3ce22c27	0.027608944
191	0x3c4a49d0	0.0123467
192	0x3d3352c5	0.043780107
193	0x3ceeebb8	0.029165134
194	0xbd8577e1	-0.06517006
195	0xbcc987d0	-0.024600893
196	0xbc766b18	-0.015040182
197	0x3b38a32a	0.0028173425
198	0xbae9a600	-0.0017825961
199	0x3d0cf619	0.034414385
200	0x3bede890	0.0072603896
201	0xbd632a53	-0.055460285
202	0xbcbbb510	-0.022913486
203	0xbd54fb68	-0.051997572
204	0xbd07a10a	-0.033112563
205	0x3c734b88	0.014849551
206	0xbc7a47e8	-0.015275933
207	0xbd9a951d	-0.07547972
208	0xbd5d8428	-0.054081112
209	0x3bde2819	0.0067796824
210	0xbd90dddb	-0.070735656
211	0xbd869dc9	-0.06573064
212	0xbd18a18a	-0.03726343
213	0x3d32f4be	0.043690436
214	0xbc9195c4	-0.01777161
215	0xbcd31928	-0.025768831
216	0xbd2cdac0	-0.042200804
217	0x3cc571fa	0.0241022
218	0xbcd4c0a8	-0.025970772
219	0xbb7ad335	-0.0038272862
220	0x3c749f90	0.014930621
221	0x3ae50118	0.001747164
222	0x3cc5a4ac	0.024126373
223	0xbc4f0788	-0.012636073
224	0x3bd3d710	0.0064648464
225	0xbca3556e	-0.019938197
226	0xbd46ede2	-0.048566706
227	0xbcf740d5	-0.030182282
228	0x3d329b4e	0.04360514
229	0xbd76799b	-0.060174566
230	0xbd629af4	-0.055323556
231	0xbd7e0848	-0.062019616
232	0xbc46138b	-0.01208962
233	0xbd983e15	-0.07433716
234	0xbd031f28	-0.032012135
235	0x3d2ad8be	0.041710608
236	0x3c23f0f4	0.010006178
237	0x3c8eb1e5	0.017418811
238	0x3c2f5738	0.010701947
239	0xbd598b2a	-0.053111233
240	0xbcee3e64	-0.029082485
241	0xbd88250e	-0.066476926
242	0xbd1e4cc4	-0.03864743
243	0x3cae5bd0	0.021284014
244	0xbd0809e5	-0.03321256
245	0x3d39230f	0.04519945
246	0xbd3a9cee	-0.045559816
247	0xbd5a7914	-0.053338125
248	0x3d7cc668	0.061712652
249	0xbd5d25aa	-0.053990997
250	0x3d18cbce	0.03730374
251	0x3a7923c2	0.00095039245
252	0xbd952f53	-0.07284417
253	0x3d1dedb0	0.038556755
254	0xbc8b6398	-0.017015263
255	0xbd2a9700	-0.04164791

fc2.bias f4 [64]
0	0xbba5925c	-0.005052848
1	0x3f372a9b	0.71549386
2	0x3ea0d31c	0.31411064
3	0xbb9ead11	-0.0048424085
4	0x3f4fa59c	0.81112075
5	0x3c38407e	0.011245845
6	0x3f085de3	0.5326826
7	0x3e7199f0	0.23593879
8	0x3db4a163	0.088198446
9	0x3ecf0629	0.40434387
10	0x3e56ecbd	0.20988746
11	0x3c01d7f5	0.007925023
12	0x3e338bea	0.17533842
13	0xbd19064f	-0.037359532
14	0x3f304a0b	0.6886298
15	0x3f30c1f8	0.6904597
16	0xbeee6792	-0.46563393
17	0xbd842553	-0.064524315
18	0x3f5b2b88	0.856133
19	0xbebfd8a3	-0.37469968
20	0x3f02a4e5	0.5103286
21	0x3e5befa4	0.21478134
22	0x3eebdbd7	0.46066162
23	0xbcc59e83	-0.024123436
24	0x3d2349f6	0.039865457
25	0xbeca42bb	-0.39504036
26	0x3e959389	0.29214123
27	0xbbe2c9b6	-0.0069210185
28	0xbda1129c	-0.078648776
29	0x3e0f3a55	0.13987096
30	0x3f1c8498	0.6113982
31	0x3e9d4afd	0.30721274
32	0x3ec13371	0.3773456
33	0x3d88dec1	0.06683112
34	0xbe1fc0d8	-0.15600908
35	0x3f1540fc	0.58302283
36	0x3f7e0f1e	0.99241817
37	0x3ec0b661	0.37639144
38	0x3f589ef3	0.8461754
39	0x3f09767d	0.53696424
40	0xbf555c13	-0.8334362
41	0x3eee6d13	0.46567592
42	0x3f075f7b	0.52880067
43	0xbd6cc16f	-0.05780166
44	0x3ed4f9f7	0.41596958
45	0xbda4efe2	-0.080535665
46	0x3d09b56c	0.033620283
47	0x3e99ba4e	0.30024952
48	0x3d4f18b3	0.050560664
49	0x3f5f6b97	0.87273544
50	0xbedf6a71	-0.43635896
51	0x3ec756c4	0.38933384
52	0xbdc30b22	-0.09523608
53	0x3b867bd9	0.0041041193
54	0x3ea0f1ab	0.31434378
55	0xbd3fe600	-0.046850204
56	0x3e9f73c3	0.31143007
57	0x3e0dc93a	0.13846293
58	0x3f032141	0.51222616
59	0x3cc22501	0.023699285
60	0xbd5467d6	-0.05185684
61	0x3ed2edb6	0.41196984
62	0x3f70fec0	0.9413872
63	0xbc82da9d	-0.015973384

fc3.weight f4 [4, 64]
0	0xbd1877ac	-0.037223503
1	0xc01015ca	-2.25133
2	0xbed4afcc	-0.41540372
3	0x3dd9f5d6	0.106425926
4	0x3fbbf643	1.4684528
5	0x3d21e519	0.039525125
6	0xbecba65d	-0.39775363
7	0xbfe21510	-1.7662678
8	0xbfa62b2e	-1.2981927
9	0xc0264401	-2.5979006
10	0xc0b9cb2b	-5.806051
11	0x3d60d7aa	0.054893173
12	0x3fb16b67	1.3860902
13	0xbfbab219	-1.4585601
14	0x3fb4291d	1.4075047
15	0x3e8cad3c	0.27475917
16	0xc026b1a6	-2.6045928
17	0x3de66313	0.11249366
18	0x3fc931fb	1.5718378
19	0xbf9f11dd	-1.2427326
20	0xbfc93d4f	-1.5721835
21	0xc038f855	-2.890157
22	0xc04c8d1b	-3.1961124
23	0x3d17b2a7	0.03703561
24	0x400acd00	2.1687622
25	0x40228d3e	2.5398707
26	0xc004161b	-2.0638492
27	0xbf8d0617	-1.1017483
28	0x3c14ef26	0.009090221
29	0xc0051185	-2.0791943
30	0xbff98904	-1.9494939
31	0x3e01749a	0.12642136
32	0xbf3f5ec9	-0.74754006
33	0xbdc3b24e	-0.09555493
34	0xbfe96f79	-1.8237144
35	0xbfee5cb3	-1.862204
36	0x3fe0b1bf	1.7554244
37	0x3f771b0e	0.9652566
38	0x3faf3388	1.3687601
39	0x3f78dcdc	0.97212005
40	0x403b0211	2.9220011
41	0xc00e8f4a	-2.2274957
42	0xbc578391	-0.0131539265
43	0xbee4678f	-0.4461026
44	0xc0621ff2	-3.5331998
45	0xbd6be900	-0.057595253
46	0xc080ad3e	-4.0211477
47	0xbf41eb40	-0.7574959
48	0xbfbe3f8f	-1.4863147
49	0x3fbdb55a	1.4820969
50	0xbd358138	-0.044312686
51	0xc07b0308	-3.92206
52	0x3d6089c2	0.054818876
53	0xbd91e407	-0.07123571
54	0xc0030224	-2.0470057
55	0x3d58698c	0.052835032
56	0xbf24d6a1	-0.6439
57	0x3fa22ec2	1.2670519
58	0xc073b414	-3.807866
59	0x3b1d6f31	0.0024022574
60	0x3ffcaac7	1.9739617
61	0xbf0a9569	-0.5413423
62	0x3fd5b772	1.6696608
63	0x3c4eb95d	0.012617436
64	0x3dccfdbc	0.100093335
65	0xc01ce5c4	-2.4515238
66	0xc007ffe1	-2.1249926
67	0xbde9d05f	-0.11416697
68	0x3f7d3e64	0.98923326
69	0x3de270cb	0.1105667
70	0xbfb2033c	-1.3907237
71	0xbfb62d79	-1.4232627
72	0xc0355e77	-2.8338907
73	0xc01a9b02	-2.415711
74	0xc03ad9c7	-2.919542
75	0xbcecf1a8	-0.028923824
76	0x3f82f965	1.0232359
77	0xbf7bda38	-0.9837985
78	0x3fda11d1	1.7036687
79	0xbe41d774	-0.18929845
80	0xc03069d7	-2.75646
81	0xbd00262f	-0.031286415
82	0x3fe329e0	1.7747154
83	0xc034b5c5	-2.8235943
84	0xbfc72c4d	-1.5560395
85	0xc06c0d1e	-3.6883006
86	0xbf10c388	-0.56548357
87	0x3dd027fd	0.10163877
88	0x401324da	2.2991242
89	0x400af871	2.1714137
90	0xbfabec14	-1.343142
91	0xbffd3476	-1.9781635
92	0x3dad52f1	0.084630854
93	0xbf8c58d6	-1.096461
94	0xbf91a893	-1.137957
95	0xbf9a4b1d	-1.2054173
96	0xbec32d34	-0.38120425
97	0xbff35f9c	-1.9013553
98	0xbfe22c99	-1.766986
99	0xbfabd06c	-1.342298
100	0x3fd73d7b	1.6815637
101	0x3f2b2163	0.6684782
102	0x3f890c6f	1.070692
103	0x3fcde00e	1.6084001
104	0x40449e9c	3.0721807
105	0xc0076d38	-2.1160412
106	0xc026fc86	-2.6091628
107	0xbf451db6	-0.7699846
108	0xc0476e8b	-3.116122
109	0xbda7fdcb	-0.08202704
110	0xbf7d7a7e	-0.99015033
111	0xbfb44a31	-1.4085141
112	0xbdb13f69	-0.08654673
113	0x3fdea187	1.7393044
114	0xbf71dad3	-0.94474524
115	0xc07faa2d	-3.9947617
116	0xbcc23447	-0.023706568
117	0xbda5fced	-0.081048824
118	0xc0174730	-2.36372
119	0x3b42b450	0.0029709525
120	0xbf9d6de8	-1.2299166
121	0x3fc1a89b	1.5129579
122	0xc080d635	-4.0261483
123	0x3d083866	0.03325691
124	0x3fe3b534	1.7789674
125	0xbfbebe9f	-1.4901923
126	0x3fce95d0	1.6139469
127	0xbde461f0	-0.111514926
128	0xbd53946c	-0.051655218
129	0xbfdf40bf	-1.7441634
130	0xbfbba3a3	-1.4659313
131	0x3db54c14	0.088524014
132	0x3fd26843	1.6438068
133	0x3c4b8dd9	0.012423956
134	0xbfeb93c5	-1.8404471
135	0xbfcb052b	-1.5860952
136	0x3fb60224	1.4219403
137	0xbfc3bff8	-1.5292959
138	0xc0587699	-3.3822386
139	0xbd220eff	-0.039565083
140	0x3f9920d0	1.1963139
141	0xc00e2622	-2.2210774
142	0x3eaea192	0.34107643
143	0xc01505e8	-2.3284855
144	0xc03ab057	-2.917013
145	0x3d9ce4dd	0.0766084
146	0x3fc954bc	1.5728984
147	0xc0379b0a	-2.8688378
148	0xbe8adb57	-0.27120468
149	0xc03eac1f	-2.9792554
150	0x3f34b21a	0.7058426
151	0x3df2489d	0.11830256
152	0x4019489c	2.3950567
153	0x402fa9d9	2.7447417
154	0xbfa520e1	-1.2900659
155	0xbfe7a8e7	-1.809842
156	0x3ced193e	0.0289427
157	0xbfc68b01	-1.5511171
158	0xbf22f0d0	-0.636487
159	0x3fd784b4	1.6837373
160	0xbf87167b	-1.0553735
161	0xbf306d48	-0.6891675
162	0xbfd2ed54	-1.6478677
163	0xbf85439d	-1.0411259
164	0x3fdd44a2	1.728657
165	0x3fec6168	1.8467226
166	0x3fbb0cff	1.4613341
167	0x3fd245cb	1.6427549
168	0x40255972	2.5835843
169	0xbfa65570	-1.2994823
170	0x3fbdc6e0	1.4826317
171	0xc01f4d4d	-2.489093
172	0xc045f6b7	-3.0931833
173	0x3afa9dfa	0.0019120567
174	0xbfabe57f	-1.3429412
175	0xbf88613e	-1.0654676
176	0xbfcff1a7	-1.6245621
177	0x3fd0d9ab	1.6316427
178	0xc07443d2	-3.8166394
179	0xc07001bb	-3.7501056
180	0x3d483fb5	0.04888888
181	0x3dd70b28	0.10500175
182	0xc07aadb0	-3.916851
183	0xbc2183a0	-0.009858042
184	0xbf5886f3	-0.84580916
185	0x3f8f9a39	1.121894
186	0xc08412c2	-4.12729
187	0xbdb7aa6d	-0.08968053
188	0x3f4c2e9e	0.7975863
189	0xbfb6c9f3	-1.428038
190	0x3fd0cddf	1.6312827
191	0xbde33469	-0.11093981
192	0x3cd93680	0.026515245
193	0xbfe694f7	-1.801421
194	0x3d08eb80	0.033427715
195	0xbcc81f63	-0.024429029
196	0x3fc763c8	1.5577326
197	0x3d20c083	0.039246093
198	0xbe2747c8	-0.16335976
199	0xc03e8841	-2.9770663
200	0xc00ddb4f	-2.2165105
201	0xc06e304c	-3.7216978
202	0xc05e524a	-3.4737725
203	0x3c69ae66	0.014262771
204	0x3fcdc5fb	1.6076044
205	0xc014c7fe	-2.3247066
206	0x3fbd272f	1.4777583
207	0xc01279cd	-2.2886841
208	0xc0208dc5	-2.508653
209	0x3de7b585	0.11313919
210	0x3fb05df0	1.3778667
211	0xc036b680	-2.854889
212	0xbfc0e8d9	-1.507106
213	0xc04a8a6c	-3.1646986
214	0x3e37422c	0.17896336
215	0xbd705ae1	-0.05868042
216	0x40119de5	2.275262
217	0x400cef4a	2.202105
218	0xc0089ccb	-2.13457
219	0xbfe686f7	-1.8009938
220	0xbddafe4a	-0.10693033
221	0xbfb8541a	-1.4400666
222	0xbfacacfb	-1.349029
223	0xbdb9d6c1	-0.09074164
224	0x3e7e8c8b	0.248583
225	0xbf310c1b	-0.69159096
226	0xbff792b7	-1.9341649
227	0xbf9d911c	-1.2309909
228	0x3fbe414a	1.4863675
229	0x3fad77e2	1.355221
230	0x40014deb	2.0203807
231	0x3f5e435e	0.86821544
232	0x403644d3	2.8479507
233	0xbf8bf5fb	-1.0934442
234	0x3f02a721	0.5103627
235	0x3cea8a20	0.028630316
236	0xc0154a94	-2.332677
237	0x3db60fae	0.088897094
238	0xc01a0206	-2.4063735
239	0xbf398984	-0.7247546
240	0xbfff84c6	-1.9962394
241	0x3fc616b3	1.5475677
242	0xbfbc35ba	-1.4703896
243	0xc05e7b18	-3.476263
244	0x3cbff278	0.023431048
245	0x3bd2c3c7	0.00643203
246	0xc0342f21	-2.8153765
247	0x3d3cc0c3	0.04608227
248	0xbf826f99	-1.0190307
249	0x3fa493b2	1.2857573
250	0xc090ad04	-4.52112
251	0x3dc79af6	0.09746353
252	0x3fa12474	1.258925
253	0xbf791894	-0.9730313
254	0x3fb1a402	1.3878176
255	0xbd5652d0	-0.05232507

fc3.bias f4 [4]
0	0xbe9bca07	-0.30427572
1	0xbe2d5a7c	-0.16929048
2	0xbd97da4a	-0.07414682
3	0xbcf99325	-0.030465672
